pretrained/FDSiamfc_30.pth (torch, 865035 bytes, 26 tensors)

backbone.conv1.0.weight f4 [28, 3, 11, 11]
0	0xbcbf08eb	-0.023319682
1	0xbc7b00b8	-0.015319996
2	0xbc94778e	-0.018123414
3	0xbc038541	-0.008027376
4	0xbbdb076b	-0.006684234
5	0x3aedf9c2	0.0018156099
6	0x3a4ba83f	0.0007768906
7	0x3c273dd7	0.010207615
8	0x3c623213	0.013805884
9	0x3c9a7dce	0.018858816
10	0x3ce05efb	0.02738904
11	0xbce9ee8c	-0.02855613
12	0xbcc3972d	-0.023875797
13	0xbca1c7f4	-0.019748665
14	0xbc5ca144	-0.013466183
15	0xbbe20b04	-0.006898286
16	0xbaa5c19f	-0.0012646205
17	0x3b4a30f0	0.0030851923
18	0x3c2c582b	0.010519068
19	0x3c5de8b2	0.013544248
20	0x3ccd9031	0.02509317
21	0x3d0c534d	0.03425913
22	0xbd0be0b3	-0.034149837
23	0xbccf0591	-0.025271209
24	0xbcb5386b	-0.022121629
25	0xbc847dbc	-0.016173236
26	0xbc0c737b	-0.008572455
27	0xba36d336	-0.0006974222
28	0x3be9ab20	0.0071309954
29	0x3be9c44a	0.007133995
30	0x3c9010c7	0.017586125
31	0x3cdd41ea	0.02700897
32	0x3d282ba6	0.04105725
33	0xbd2500a8	-0.04028383
34	0xbd24582c	-0.04012315
35	0xbcb64cb2	-0.022253368
36	0xbc8704d2	-0.01648179
37	0xbc389713	-0.011266488
38	0xbb5704ba	-0.0032809214
39	0x3ba27090	0.004957266
40	0x3c97e546	0.018541943
41	0x3caa7b88	0.020810857
42	0x3cd07617	0.025446935
43	0x3d3da74b	0.04630212
44	0xbd2fdf18	-0.04293737
45	0xbd067cb5	-0.032833774
46	0xbce300da	-0.027710367
47	0xbc6e7775	-0.014554848
48	0xbc52538e	-0.012837304
49	0x39f31ae1	0.00046368598
50	0x3b27f37d	0.0025627308
51	0x3c80c412	0.015718494
52	0x3cbdacbe	0.023153659
53	0x3d024c4b	0.03181104
54	0x3d4a734c	0.049426362
55	0xbd22983e	-0.03969597
56	0xbd1e73fc	-0.03868483
57	0xbcb907af	-0.022586672
58	0xbc98ee70	-0.018668383
59	0xbc428c07	-0.011874205
60	0xb9c6b8a4	-0.0003790307
61	0x3b797721	0.003806539
62	0x3c5b9c73	0.013404
63	0x3d062e38	0.03275892
64	0x3d0f9ce5	0.035061736
65	0x3d4c0dab	0.049817722
66	0xbd2a03dc	-0.041507587
67	0xbd1992d2	-0.037493534
68	0xbcf11f5f	-0.029433904
69	0xbc6d02fa	-0.014466042
70	0xbc197998	-0.009367369
71	0x3b4a5772	0.0030874875
72	0x3bfee5dc	0.007778866
73	0x3cc73b09	0.024320142
74	0x3ce9ac30	0.028524488
75	0x3d147b00	0.036250114
76	0x3d521c3a	0.05129645
77	0xbd321d38	-0.043484896
78	0xbd0fb4fd	-0.035084713
79	0xbd00b9d2	-0.031427212
80	0xbc9901bd	-0.018677587
81	0xbc303371	-0.010754452
82	0xbb736186	-0.0037136986
83	0x3bf4c413	0.007469663
84	0x3cad80d5	0.021179596
85	0x3ce1fcb3	0.027586317
86	0x3d1a8a83	0.03772975
87	0x3d40253f	0.04691052
88	0xbd376392	-0.044772692
89	0xbd1dd924	-0.03853716
90	0xbcd8e74d	-0.02647748
91	0xbc907c8c	-0.017637514
92	0xbc2d47b3	-0.010576176
93	0xba4cc56a	-0.00078113994
94	0x3ba2cd46	0.004968318
95	0x3c954022	0.018219057
96	0x3cf05bc8	0.02934064
97	0x3d2941e0	0.04132259
98	0x3d3b1400	0.04567337
99	0xbd28537d	-0.041095246
100	0xbcfec231	-0.031098457
101	0xbcdfece6	-0.027334642
102	0xbc9a4c73	-0.018835282
103	0xbbdd2349	-0.006748591
104	0xba9d329c	-0.0011993232
105	0x3bfa740b	0.007643228
106	0x3c94b910	0.01815465
107	0x3cb712d7	0.02234785
108	0x3d0b73ee	0.034046106
109	0x3d273827	0.040825035
110	0xbd0f7623	-0.035024773
111	0xbcfdd732	-0.030986402
112	0xbcabea13	-0.020985639
113	0xbc8ce284	-0.017197855
114	0xbc4a733e	-0.012356577
115	0xbad7296b	-0.0016415542
116	0x3c2ee8a2	0.010675581
117	0x3c5460b2	0.012962507
118	0x3cc911a4	0.024544545
119	0x3cdd9b5f	0.027051626
120	0x3d1456da	0.03621564
121	0xbb9516e4	-0.004549848
122	0xbb816f05	-0.003950002
123	0xbb9c87d7	-0.0047769356
124	0xbbbeaa09	-0.0058186096
125	0xbb59b40d	-0.003321889
126	0x3b1acaf2	0.00236195
127	0xbaf556c1	-0.0018717871
128	0x3a9694f4	0.0011488483
129	0x3a43406c	0.0007448259
130	0x3b928e0f	0.004472501
131	0x3ba22e81	0.0049493914
132	0xbbd15e61	-0.0063894247
133	0xbbb14ca3	-0.005410747
134	0xbbbc01d9	-0.005737525
135	0xbafa53b6	-0.0019098434
136	0xbb1d9dc1	-0.0024050327
137	0x3ab619aa	0.0013893147
138	0x3bbfcfdf	0.0058536376
139	0x3bbc6f93	0.0057506054
140	0x3b90f4ac	0.0044236984
141	0xbac369cc	-0.0014908849
142	0x3ba7cb3b	0.0051206625
143	0xbb9b65cd	-0.00474236
144	0xbb91bd34	-0.0044476036
145	0xbc00e761	-0.007867665
146	0x3afa2482	0.0019084367
147	0x3b0bdc11	0.0021340887
148	0x3ae8a13e	0.0017748249
149	0xbaf143c7	-0.001840704
150	0x3b2a0b04	0.0025946507
151	0x3baecc42	0.005334408
152	0xba88288d	-0.0010388062
153	0xbb6f22f0	-0.003648933
154	0xba390428	-0.0007057809
155	0x3a0cf08b	0.000537642
156	0xbac2a25a	-0.001484941
157	0x3a736bbd	0.00092857686
158	0x3a4778e5	0.0007609262
159	0xbad112a4	-0.001595099
160	0x3b346e3c	0.0027531525
161	0x3b9b7149	0.0047437293
162	0x3b045e5e	0.0020197849
163	0x3a1a57ac	0.0005887698
164	0xbacca084	-0.0015611802
165	0xbaab4571	-0.001306696
166	0xb85b835f	-5.2336018e-05
167	0xbb3626ac	-0.0027794046
168	0xb9938798	-0.0002813905
169	0x3b5ceaf5	0.0033709381
170	0x3b5ac870	0.003338363
171	0x3b494a2e	0.003071438
172	0x3b3b20c6	0.002855347
173	0xba4c35ea	-0.0007790016
174	0xbb7469f0	-0.003729459
175	0xbbc1d945	-0.005915793
176	0xbb605b9a	-0.0034234286
177	0x3afdf072	0.0019374026
178	0x3b513ca3	0.0031927011
179	0xbb069391	-0.0020534734
180	0x3bab8ae3	0.0052350624
181	0x3a8e1606	0.0010840304
182	0x3b036680	0.0020050108
183	0x3b56c207	0.0032769458
184	0xba427481	-0.0007417873
185	0xbafb145d	-0.0019155849
186	0xbaee7e25	-0.0018195553
187	0xbb195ab9	-0.0023400022
188	0x3b1ae87c	0.0023637107
189	0x3bf6354c	0.0075136777
190	0x3a7daee0	0.00096772425
191	0xba9d46ec	-0.0011999286
192	0xbaf16b01	-0.001841873
193	0x3b3a6930	0.0028444044
194	0xbb6312f7	-0.0034648755
195	0x3b0c6912	0.0021424931
196	0xbb057127	-0.0020361634
197	0xbb932bdf	-0.004491314
198	0xbb440eba	-0.0029916004
199	0x37fee17a	3.0384155e-05
200	0x3b0d6afe	0.0021578665
201	0x3a8c8333	0.0010720253
202	0xb8be1f22	-9.065705e-05
203	0x3bb6a83f	0.0055742557
204	0xb7aee776	-2.0850199e-05
205	0xbbaa15f7	-0.0051906067
206	0xbaa47991	-0.0012548437
207	0x39d1d2c2	0.00040020613
208	0xbb87493f	-0.0041286047
209	0x3bea7826	0.007155436
210	0x3bcc850f	0.0062414478
211	0xbb2e166e	-0.0026563662
212	0x3a2c32c2	0.0006568843
213	0x3ac4efe3	0.0015025105
214	0xba7cb7e3	-0.00096404384
215	0x3b8e838f	0.004349179
216	0x38c80576	9.53776e-05
217	0xbbdf1214	-0.006807575
218	0xbac66daf	-0.001513889
219	0xbc001c71	-0.007819281
220	0x3ac1a717	0.0014774528
221	0xbb623d4c	-0.00345214
222	0x3afc00c5	0.0019226304
223	0x3abd3bed	0.0014437415
224	0xbad2d0e4	-0.0016083983
225	0xbb476073	-0.0030422478
226	0xba0914e3	-0.00052292476
227	0xbb9f4b5f	-0.00486128
228	0xb9902539	-0.00027493553
229	0xbb90bc6f	-0.0044169943
230	0xba1fbb73	-0.0006093301
231	0x3b5f4537	0.0034068355
232	0x3a01d91f	0.0004953313
233	0xbb7fb6b0	-0.0039018802
234	0xba42c566	-0.00074299274
235	0xbb719006	-0.0036859526
236	0x3b7dac39	0.003870739
237	0xb9e1d58c	-0.0004307445
238	0xbb21f449	-0.0024712256
239	0x3af3a7ff	0.0018589495
240	0x3b0cefbe	0.0021505202
241	0x3a811d77	0.00098507
242	0x3d08278b	0.033240836
243	0x3cb083d3	0.021547234
244	0x3cba06c5	0.022708306
245	0x3c3b5ecb	0.011436175
246	0x3c2083b2	0.009797024
247	0xbb3a6df0	-0.0028446876
248	0xbbdb0833	-0.006684327
249	0xbc5a3eec	-0.013320666
250	0xbcb039b6	-0.021511894
251	0xbce58cb9	-0.028021203
252	0xbcedb428	-0.02901657
253	0x3d123a88	0.03570035
254	0x3cf69eb1	0.030104967
255	0x3cbaf97b	0.02282404

backbone.conv1.0.bias f4 [28]
0	0xb091e858	-1.0616175e-09
1	0xafa7e595	-3.054025e-10
2	0xafd1b905	-3.8148343e-10
3	0xae8b959d	-6.347565e-11
4	0xb054ba66	-7.739004e-10
5	0x302e651e	6.344453e-10
6	0x303536ce	6.59253e-10
7	0xb037b1a0	-6.682743e-10
8	0xb0fdd5e0	-1.846896e-09
9	0xb0396698	-6.74484e-10
10	0x2b9a9e81	1.0986352e-12
11	0x2e04f03a	3.022669e-11
12	0xaea69139	-7.574603e-11
13	0x300f0256	5.2026417e-10
14	0xadd42edc	-2.412242e-11
15	0x2f6149ad	2.0489806e-10
16	0xafc5ca1f	-3.5977707e-10
17	0xafd69e3d	-3.9038808e-10
18	0xaf9f38af	-2.8962208e-10
19	0xb074d47a	-8.906863e-10
20	0x2e80b6bb	5.8532255e-11
21	0xb0648715	-8.313788e-10
22	0x2ff60045	4.474733e-10
23	0xafa905db	-3.0745081e-10
24	0xb09a7a0b	-1.1239661e-09
25	0x2fb196d3	3.230328e-10
26	0xb056ba95	-7.8117895e-10
27	0xadc6342e	-2.2533166e-11

backbone.conv1.1.weight f4 [28]
0	0x3edd8042	0.43261915
1	0x3edff541	0.437418
2	0x3ee0b6d6	0.43889493
3	0x3ec4a791	0.38409093
4	0x3ee137a0	0.4398775
5	0x3e9d7022	0.30749613
6	0x3eb335d5	0.35002008
7	0x3ebc70e3	0.36804876
8	0x3eec33a3	0.46133146
9	0x3ece178a	0.40252334
10	0x3ebdf438	0.37100387
11	0x3ec0e804	0.37677014
12	0x3ea9b480	0.33145523
13	0x3ed1a1b9	0.40943697
14	0x3e908ce6	0.28232497
15	0x3ea1fdcf	0.31638953
16	0x3ecee411	0.40408376
17	0x3ee10c21	0.43954566
18	0x3ec0a903	0.37628946
19	0x3ea73149	0.3265479
20	0x3ea11cf2	0.31467396
21	0x3eff03c1	0.49807552
22	0x3edb58f0	0.4284129
23	0x3eedc0b6	0.4643609
24	0x3ecd0ddc	0.40049636
25	0x3ecab6eb	0.3959268
26	0x3edecaee	0.43514198
27	0x3ea7ad48	0.3274939

backbone.conv1.1.bias f4 [28]
0	0xbdad8798	-0.08473128
1	0xbd2ce84f	-0.042213734
2	0x3e17870e	0.14797613
3	0x3e5a8680	0.2134037
4	0x3d47fe31	0.0488264
5	0x3e1641aa	0.14673486
6	0x3bc0e31d	0.005886449
7	0xbe4302e5	-0.19044073
8	0xbd96238d	-0.073309995
9	0xbd59401c	-0.053039655
10	0x3d622d0a	0.055218734
11	0x3d58cb9f	0.052928563
12	0x3e980edd	0.2969884
13	0x3e5f2070	0.21789718
14	0x3d68ce97	0.056837644
15	0x3db0d6b1	0.08634699
16	0xbd455b56	-0.048182808
17	0x3e84ce70	0.2593875
18	0x3dea4a6f	0.11439978
19	0xbd81726c	-0.06320652
20	0x3e13ddd9	0.14440097
21	0xbe071c27	-0.13194333
22	0x3e3b2af2	0.18278101
23	0x3bca4c07	0.006173614
24	0xbe375ff1	-0.17907692
25	0x3e83ccef	0.2574229
26	0x3e23b1f0	0.15985847
27	0x3e655a52	0.22397736

backbone.conv1.1.running_mean f4 [28]
0	0xbf923695	-1.1422907
1	0xc013a7c0	-2.3071136
2	0xc148f99d	-12.560941
3	0x41c505a0	24.627747
4	0xc20319b8	-32.775116
5	0x3fabe840	1.3430252
6	0x41fdc0b7	31.719099
7	0xc238c655	-46.193684
8	0xc0b6a3f9	-5.707516
9	0xc2487ef6	-50.123985
10	0xc0f6bae6	-7.7103148
11	0x409247d3	4.5712676
12	0xc0af0fd8	-5.470684
13	0x418b241c	17.392632
14	0x410dc5ed	8.860822
15	0xc116a48e	-9.4151745
16	0x40d4fca9	6.6558423
17	0xc1dbb04b	-27.46108
18	0xc1bf857f	-23.940184
19	0xbff82a19	-1.9387847
20	0x411fb573	9.981799
21	0xc27ad67f	-62.70947
22	0x4137afb7	11.480399
23	0xc14c8028	-12.781288
24	0x424c3661	51.053104
25	0xc14ab82b	-12.669963
26	0xc17aacfc	-15.6672325
27	0xc1b9f0d7	-23.242598

backbone.conv1.1.running_var f4 [28]
0	0x43a2e84a	325.81476
1	0x4507697f	2166.5935
2	0x45079e3c	2169.8896
3	0x449fe824	1279.2544
4	0x450b8e27	2232.8845
5	0x43aea9c9	349.32645
6	0x442b0641	684.0977
7	0x44105f59	577.4898
8	0x4461f9ac	903.9011
9	0x44062975	536.64777
10	0x43accc5b	345.59653
11	0x44005e20	513.4707
12	0x4387940c	271.15662
13	0x44af1755	1400.7291
14	0x43cd7b58	410.96362
15	0x449acddf	1238.4335
16	0x44576be0	861.68555
17	0x450e8068	2280.0254
18	0x45502545	3330.3293
19	0x451d3f48	2515.955
20	0x44aa6746	1363.2273
21	0x44b51701	1448.7189
22	0x44c42f49	1569.4777
23	0x454222c3	3106.1726
24	0x43fd77b3	506.93515
25	0x44fdc927	2030.286
26	0x44f6ee91	1975.4552
27	0x4504894c	2120.581

backbone.conv2.0.weight f4 [76, 14, 5, 5]
0	0x3c942ac5	0.0180868
1	0xbb105591	-0.0022023658
2	0xbbc9e666	-0.006161499
3	0xbc8838b1	-0.016628595
4	0xbcb567a6	-0.02214415
5	0x3c679c47	0.0141363805
6	0x3bac9eef	0.00526797
7	0x3b5f5d63	0.0034082762
8	0xb9fbc697	-0.00048022412
9	0xbbcf6dd3	-0.0063302307
10	0x3c57acad	0.013163728
11	0x3b634d6a	0.0034683594
12	0x3b9e69a8	0.0048343726
13	0xbb8ff720	-0.0043934733
14	0xbbf3438b	-0.0074238232
15	0x3c5db687	0.013532287
16	0x3b20c92f	0.0024533977
17	0xb919a456	-0.00014652437
18	0xbb86a17c	-0.004108606
19	0xbc8d670f	-0.017261056
20	0x3c2b277c	0.0104464255
21	0x3b199ceb	0.0023439478
22	0xbba071fb	-0.0048964
23	0xbc847e8d	-0.016173625
24	0xbce93507	-0.028467668
25	0x3a457bc0	0.0007533394
26	0xbb0b09eb	-0.0021215628
27	0xbb090e38	-0.0020913016
28	0x3bb3da31	0.005488657
29	0x3c3ad859	0.01140412
30	0xbba27c9b	-0.004958702
31	0xbbcc77eb	-0.0062398813
32	0xbb98d8e7	-0.0046645286
33	0x3a05b73e	0.00051008526
34	0xbbc0dc56	-0.005885641
35	0xbbe29bdc	-0.0069155525
36	0x39240e41	0.00015645569
37	0x3baa4544	0.0051962454
38	0x3c33b96c	0.010969501
39	0x3b2fa212	0.0026799482
40	0x3c04bdfd	0.008101937
41	0x3a8d90a2	0.001080055
42	0x3c1a2596	0.009408375
43	0xbbe70ae9	-0.007050861
44	0xbc2bdaa5	-0.010489141
45	0x3c7748c4	0.015093032
46	0x3b00e94a	0.00196703
47	0xbbd1ae7a	-0.006398973
48	0xbccb44bd	-0.02481305
49	0xbce6a897	-0.028156562
50	0xba86dc75	-0.001028909
51	0xbc44571d	-0.01198366
52	0xb9fd4419	-0.00048306657
53	0xbc84d866	-0.016216468
54	0xbca70e93	-0.020392692
55	0x3a9a3838	0.0011766022
56	0x3b53ba28	0.0032307003
57	0x3c45e2d2	0.012078004
58	0x3c5016f6	0.012700787
59	0xbc202fe1	-0.00977704
60	0xb9e67c50	-0.0004396164
61	0xbb5ffb84	-0.0034177015
62	0x3bf5d0ff	0.007501721
63	0x3c0f4002	0.008743288
64	0xba401a91	-0.00073281775
65	0xbb1b631f	-0.0023710204
66	0x3b1b95e3	0.0023740462
67	0xbbc5aca0	-0.0060325414
68	0xbb329c1d	-0.0027253695
69	0xbcb77c10	-0.022398025
70	0x3bc93462	0.0061402777
71	0xbb5951f4	-0.003316042
72	0xbc02fca7	-0.007994807
73	0xbccd4b53	-0.025060331
74	0xbd1ca6e4	-0.038245097
75	0x3b94687d	0.0045290575
76	0x3aa318a3	0.0012443255
77	0xbb453e27	-0.003009686
78	0xbc22ffea	-0.00994871
79	0xbc35ada8	-0.011088766
80	0x3b344b22	0.0027510603
81	0xb9ec43bd	-0.00045063897
82	0x3a841023	0.001007561
83	0xbb61d317	-0.0034458095
84	0xba13aee7	-0.00056336675
85	0x3bb38fff	0.005479812
86	0xbb916aa3	-0.004437761
87	0xbbdd4d68	-0.0067536123
88	0xbbbf0002	-0.0058288584
89	0xbaafd29f	-0.001341421
90	0xbb63a5a2	-0.0034736176
91	0xbc2623fb	-0.010140414
92	0xbc5cc15c	-0.013473835
93	0xbc892dd8	-0.016745493
94	0xbbe39ceb	-0.0069461963
95	0x3c3377d8	0.010953866
96	0xbb6e5f2d	-0.0036372647
97	0xbba2deba	-0.0049703987
98	0x3a16fa8b	0.000575938
99	0x3bb3b1ef	0.005483858
100	0xbc07ca0e	-0.00828792
101	0xbcaf340c	-0.021387123
102	0xbc57908b	-0.01315702
103	0xbc3f74fc	-0.011685606
104	0xbd0eac47	-0.034832265
105	0xbc14b1e4	-0.009075616
106	0xbbf24aab	-0.007394155
107	0x38f2dc2b	0.00011580469
108	0x3bbc5364	0.0057472456
109	0xbbbb8f17	-0.0057238447
110	0xbb6395ef	-0.0034726819
111	0xbb2f4b4b	-0.002674776
112	0x3bea8f76	0.007158215
113	0x3b604f36	0.00342269
114	0xbc01cafd	-0.007921931
115	0x3bbb37c1	0.0057134335
116	0x3a734250	0.00092795957
117	0x3c007b7f	0.007841944
118	0xb6a6e678	-4.9740156e-06
119	0xbc3d9be4	-0.011572812
120	0x3c265d69	0.010154107
121	0x3b62509c	0.003453291
122	0x3c324553	0.010880786
123	0xbbc8f527	-0.00613274
124	0xbd08501c	-0.033279523
125	0x3c4ef0fa	0.0126306955
126	0x3c2c8d96	0.010531804
127	0x3c20b074	0.009807695
128	0x3c2e7dd9	0.010650122
129	0x3c2c0faf	0.010501786
130	0x3be18f13	0.006883511
131	0x3c233856	0.009962162
132	0x3bb0e443	0.0053983047
133	0x3bdf91ab	0.006822785
134	0x3a2b761a	0.0006540731
135	0x3bcbda15	0.0062210658
136	0x3b81001d	0.003936781
137	0x3c0f438a	0.00874413
138	0x3c62ace3	0.013835165
139	0x3c4ac399	0.012375736
140	0x3b531192	0.0032206518
141	0x3aab30c3	0.0013060797
142	0x3b2c9009	0.0026330969
143	0x3be797a4	0.0070676375
144	0xba5bf60b	-0.000839085
145	0x3b42e2e0	0.0029737279
146	0x3b7ab9b4	0.003825766
147	0x3bb52b42	0.0055288384
148	0x3b450233	0.0030061125
149	0x398ba22d	0.00026632976
150	0x3c0f3947	0.008741683
151	0x3c023cb7	0.007949046
152	0x3bd2d32f	0.0064338665
153	0x397159fd	0.00023017074
154	0x3ace3925	0.0015733583
155	0x3b59d8d3	0.003324081
156	0xba8bad27	-0.0010656462
157	0xbc0d4213	-0.00862171
158	0xba5dd41f	-0.00084620895
159	0x3bea686d	0.007153562
160	0x3bf389f4	0.007432217
161	0xbb2d73b7	-0.0026466676
162	0x3c0821f2	0.008308874
163	0x3b840ae4	0.0040296186
164	0x3bd24fcd	0.0064182044
165	0x3b506172	0.0031796363
166	0x3a849066	0.0010113835
167	0xbb5681a3	-0.0032731078
168	0x3920be75	0.0001532974
169	0xbbd17de3	-0.0063931807
170	0x3c31d859	0.010854804
171	0x3bfcf515	0.0077196457
172	0x3a7e0dd1	0.000969139
173	0x39b0efaf	0.00033747914
174	0xbbb1cf5f	-0.005426332
175	0x3c46b9c4	0.012129251
176	0xbac387ac	-0.0014917753
177	0x3a836baf	0.0010026599
178	0xbb13c9f9	-0.0022550805
179	0xb9a777dd	-0.00031942027
180	0x3ae5a55d	0.0017520596
181	0x3b31631d	0.0027067133
182	0xbb1e4e0e	-0.002415541
183	0xbbcf9823	-0.006335275
184	0xb993a780	-0.00028162822
185	0x3922084d	0.00015452616
186	0xba7b9f3f	-0.00095986197
187	0xbbfc3bac	-0.007697543
188	0xbc238aa7	-0.009981788
189	0xbb38ea4b	-0.0028215821
190	0x3b744272	0.003727105
191	0xbace6050	-0.0015745256
192	0xbc644f74	-0.013934959
193	0xbc605ed8	-0.0136944875
194	0xbc7046f1	-0.014665351
195	0xbb7eca55	-0.0038877924
196	0xbbeb3e65	-0.007179069
197	0xbc89b8d0	-0.016811758
198	0xbcb24e0b	-0.02176573
199	0xbcb7eaa8	-0.02245076
200	0xbbbf5790	-0.0058392957
201	0xbb9fe802	-0.0048799524
202	0xbb3b894d	-0.0028615773
203	0xbbd024c3	-0.0063520386
204	0xbcdd32ed	-0.027001822
205	0xbb4f1e48	-0.0031603742
206	0xbb5ccaf7	-0.0033690312
207	0x3b88235b	0.0041546053
208	0xbaa54d4f	-0.0012611541
209	0xbcd1e94d	-0.025623942
210	0x3b93e4cc	0.0045133587
211	0xbbf39bb8	-0.0074343346
212	0xb91e8539	-0.00015117684
213	0x3b4cebf6	0.0031268573
214	0xbc805d4f	-0.015669493
215	0x3b4678de	0.0030284445
216	0xbbe05b24	-0.0068468023
217	0xbc537e86	-0.0129085835
218	0x3ac6ebaf	0.001517644
219	0xbccad4cf	-0.024759678
220	0xbc163b95	-0.009169479
221	0xbc8b4b22	-0.0170036
222	0xbd019b27	-0.031642105
223	0xbccfd5bc	-0.025370471
224	0xbd44a2be	-0.048006766
225	0x3be2370c	0.0069035348
226	0x3c42a9f4	0.01188134
227	0x3b5574ff	0.0032570956
228	0x3b1859e0	0.002324693
229	0xbb06b583	-0.0020554967
230	0x3c8628fa	0.016376961
231	0x3a6ecfdd	0.00091099535
232	0xbb904d58	-0.0044037513
233	0xbbff4f53	-0.0077914386
234	0xbc3db221	-0.011578114
235	0x3b879364	0.0041374434
236	0x3b9695f5	0.004595513
237	0xbaae6564	-0.0013305363
238	0xbbadda5f	-0.005305573
239	0xbba8589d	-0.0051375167
240	0x3c4eaf6b	0.012615065
241	0x3c54724f	0.012966706
242	0xbc58e750	-0.013238743
243	0xbb628c50	-0.0034568496
244	0xbc2f5678	-0.010701768
245	0x3c0c9db5	0.008582522
246	0xbb0a74a3	-0.002112665
247	0xbb9579e7	-0.004561651
248	0xbc84c8db	-0.016209057
249	0xbc88f92f	-0.016720382
250	0x3c3a984a	0.011388848
251	0x3c3efb0e	0.011656536
252	0x3c9d614e	0.019211438
253	0x3cc047c2	0.023471717
254	0x3c8a0652	0.016848717
255	0x3c1311ef	0.008976444

backbone.conv2.0.bias f4 [76]
0	0xb37f66d9	-5.9465354e-08
1	0x331c97f3	3.6459777e-08
2	0xb2950f72	-1.7352907e-08
3	0x3311187f	3.3782722e-08
4	0xb19477e7	-4.3209982e-09
5	0xb3012121	-3.0065284e-08
6	0x328be9fb	1.6288132e-08
7	0x31e3fd8d	6.635395e-09
8	0xb322a6c1	-3.7870226e-08
9	0xb19c6db1	-4.552668e-09
10	0xb2d24d52	-2.4482379e-08
11	0xb2d2d205	-2.4542723e-08
12	0xb2eb572a	-2.7397238e-08
13	0xb34eafcd	-4.8123002e-08
14	0x32bf379b	2.2260613e-08
15	0x33202aaf	3.7291723e-08
16	0xb0bbab26	-1.3654684e-09
17	0xb349bf48	-4.697293e-08
18	0xb36f1b39	-5.5671283e-08
19	0x331cf5b2	3.654504e-08
20	0xb36a5348	-5.4558114e-08
21	0x31202f92	2.3310105e-09
22	0xb31d7a4d	-3.6665643e-08
23	0xb2dcf6c7	-2.5723592e-08
24	0x335b59fe	5.107176e-08
25	0xb16276f7	-3.2954952e-09
26	0x30f473f1	1.7786289e-09
27	0x32516ba4	1.2189876e-08
28	0xb1de8270	-6.4758794e-09
29	0x32db4fe2	2.5531282e-08
30	0xb294c28b	-1.7317936e-08
31	0xb2510182	-1.2165744e-08
32	0x32940d4e	1.7235518e-08
33	0xb2af8a9c	-2.0435714e-08
34	0x3289d2bb	1.6044728e-08
35	0xb15c5921	-3.2064877e-09
36	0x33079d84	3.1575397e-08
37	0xb287acf3	-1.5794717e-08
38	0x3394fa2d	6.937294e-08
39	0x31e2c2d1	6.5996137e-09
40	0xb243902e	-1.13832765e-08
41	0xb2bfef48	-2.2344139e-08
42	0x3327eaad	3.9096154e-08
43	0xb2cc3dfc	-2.3776913e-08
44	0x31f38c39	7.0881723e-09
45	0xb1b37696	-5.2230673e-09
46	0x32859e00	1.5555088e-08
47	0x32a63383	1.9348368e-08
48	0x33090d8d	3.1910123e-08
49	0x33384f42	4.2912923e-08
50	0xafdbb17b	-3.9961975e-10
51	0x3206d4ef	7.848242e-09
52	0x31c7a50b	5.8104255e-09
53	0xb246174b	-1.1530413e-08
54	0x33147cd5	3.457247e-08
55	0x321c9970	9.115283e-09
56	0x326e30e3	1.3864539e-08
57	0x332c98d4	4.0185867e-08
58	0xb153b920	-3.0809773e-09
59	0xb3296fb9	-3.944999e-08
60	0x3331096c	4.1219593e-08
61	0xb31c2ba6	-3.636128e-08
62	0x31095ab5	1.9987685e-09
63	0x311aac33	2.2507833e-09
64	0x3309141c	3.1916088e-08
65	0x3340773e	4.4811934e-08
66	0x3333cd3a	4.1863338e-08
67	0x3245bfb5	1.1510498e-08
68	0x325df270	1.2919017e-08
69	0x338ef5ea	6.657122e-08
70	0x3272f6be	1.4142357e-08
71	0x333c18e7	4.379481e-08
72	0xb3a9b4f0	-7.902588e-08
73	0xb0fd67ba	-1.8437654e-09
74	0x333bb5e9	4.3704777e-08
75	0x32bd625a	2.2047221e-08

backbone.conv2.1.weight f4 [76]
0	0x3ec25fff	0.37963864
1	0x3eb414bd	0.35172072
2	0x3ef67f47	0.4814398
3	0x3f039006	0.5139164
4	0x3f0b01ed	0.54299814
5	0x3ed71dd6	0.4201495
6	0x3eaf89b7	0.34284756
7	0x3eec2bb9	0.46127108
8	0x3f0f98d4	0.5609257
9	0x3f04ff79	0.5195232
10	0x3eda7555	0.42667642
11	0x3ebf3bf7	0.37350437
12	0x3ee4d67b	0.44694886
13	0x3e9b375b	0.3031567
14	0x3f1c1b7d	0.60979444
15	0x3f3748e9	0.7159563
16	0x3edd31b6	0.4320199
17	0x3eaeb2a2	0.3412066
18	0x3eb38110	0.35059404
19	0x3f1ad5bd	0.6048239
20	0x3ef2479c	0.4732026
21	0x3eed44bf	0.46341512
22	0x3ef1b9da	0.47212106
23	0x3edc845c	0.43069732
24	0x3f195aa6	0.59903944
25	0x3f0f4ef8	0.5597987
26	0x3ef38310	0.4756093
27	0x3ef4fdea	0.4784997
28	0x3edee49e	0.43533796
29	0x3ec52871	0.38507417
30	0x3ec98774	0.39361155
31	0x3ef6d00d	0.48205605
32	0x3ee4e9a9	0.4470952
33	0x3eedabc2	0.46420103
34	0x3f08d52a	0.5345026
35	0x3ec3721a	0.3817299
36	0x3ed63e7e	0.41844553
37	0x3f1ac243	0.6045267
38	0x3ef25ee5	0.47338024
39	0x3f083ea9	0.5322061
40	0x3eb2bc67	0.34909365
41	0x3ed4aeb2	0.41539532
42	0x3f05a7bf	0.52209085
43	0x3ede4015	0.43408266
44	0x3ee7b3bd	0.45254317
45	0x3ed617de	0.41815084
46	0x3efcf113	0.49402675
47	0x3f01bcf1	0.50678927
48	0x3f0a0dfb	0.5392758
49	0x3f0a0f9f	0.53930086
50	0x3eee0de8	0.46494985
51	0x3efc6467	0.4929535
52	0x3effbbe0	0.49948025
53	0x3eebce57	0.46055862
54	0x3ef95ef3	0.48705253
55	0x3eee3b7e	0.46529764
56	0x3ed4c5b2	0.4155708
57	0x3ef26fe1	0.47350982
58	0x3f00c003	0.50292987
59	0x3edf3cec	0.43601167
60	0x3f0a4045	0.5400432
61	0x3f00359a	0.5008179
62	0x3f00c80e	0.5030526
63	0x3f003f1f	0.50096315
64	0x3ef48cc7	0.47763655
65	0x3ebf0485	0.37308136
66	0x3ef292c5	0.473776
67	0x3edfe33a	0.43728048
68	0x3ed5056c	0.416057
69	0x3efb2e40	0.49058723
70	0x3ec50504	0.3848039
71	0x3ef14da1	0.4712954
72	0x3ec4db71	0.3844867
73	0x3ee1854c	0.4404701
74	0x3f073ffb	0.52832
75	0x3f040a13	0.5157787

backbone.conv2.1.bias f4 [76]
0	0xbd204c97	-0.03913554
1	0xbc3fc509	-0.011704692
2	0x3c03a049	0.00803382
3	0xbc077be8	-0.008269288
4	0xbb8f0d9c	-0.004365636
5	0xbacc28a1	-0.0015576073
6	0x3d3c055c	0.04590355
7	0x3d9b4336	0.07581179
8	0xbd38acb5	-0.04508658
9	0xbbb049e6	-0.005379903
10	0xbd369825	-0.04457869
11	0xbc661472	-0.0140429605
12	0xb98cc1d2	-0.00026847288
13	0xbd352d3e	-0.0442326
14	0xbe05e972	-0.13077334
15	0xbd7539c7	-0.059869554
16	0x3bb0a8a7	0.0053911987
17	0xbe11742a	-0.1420447
18	0xbdaff590	-0.08591759
19	0xbcbba6f0	-0.02290675
20	0xbb497330	-0.0030738823
21	0xbc86fbd0	-0.016477495
22	0xbd69af9d	-0.057052244
23	0x3cfe50ca	0.031044383
24	0xbb04a753	-0.0020241335
25	0xbc0723f5	-0.008248319
26	0x3c902b74	0.017598845
27	0xbcb149e3	-0.021641677
28	0x3d159a4d	0.036524106
29	0xbc9ed357	-0.019387884
30	0x3d68b78d	0.056815673
31	0xbcc47f7b	-0.023986569
32	0x3aeaa8d1	0.0017903094
33	0xbd252fa4	-0.040328637
34	0xbc300ccc	-0.0107452385
35	0xbc1203c5	-0.008912032
36	0xbd08e35c	-0.03341995
37	0xbcaf97a2	-0.021434609
38	0x3bea7f19	0.0071562645
39	0xbc32d088	-0.010913976
40	0xbc5df70f	-0.013547673
41	0xbcc30d5f	-0.023810087
42	0x3d6db3db	0.05803285
43	0x3b938933	0.0045024394
44	0xbc803920	-0.01565224
45	0xbaaf3a94	-0.0013368898
46	0xbcd3dc70	-0.025861949
47	0xbd2d22b5	-0.042269427
48	0x3d67b6d5	0.056570847
49	0x3c5684ef	0.013093217
50	0x3cdfa90c	0.027302288
51	0xbd170eaf	-0.036879238
52	0x3a1d4d83	0.0006000625
53	0xbc22c60b	-0.009934912
54	0xbcee7266	-0.029107284
55	0x3d21caf5	0.039500196
56	0x3be84e64	0.007089423
57	0x3c2f4992	0.010698693
58	0xbc54758b	-0.012967478
59	0x3d653927	0.055962708
60	0x3b4dae4b	0.0031384404
61	0xbcdd12d4	-0.026986517
62	0xbd13d2a1	-0.036089543
63	0xbc17b1f8	-0.00925874
64	0xbc9b19dd	-0.018933231
65	0xbc1e54f7	-0.009663812
66	0xbaa8968c	-0.0012862249
67	0x3cf73224	0.030175276
68	0x3d9fbaf1	0.07799328
69	0xbbe1867d	-0.0068824873
70	0xbc365727	-0.011129177
71	0x3c65e718	0.014032148
72	0xbd8477fc	-0.06468198
73	0xbccb88ad	-0.024845446
74	0xbd458587	-0.048223045
75	0xbc79ecfb	-0.015254254

backbone.conv2.1.running_mean f4 [76]
0	0xbc227df3	-0.009917724
1	0xbd19085f	-0.0373615
2	0xbe71ed5d	-0.23625703
3	0xbe523ce9	-0.20531048
4	0xbe5347fc	-0.20632929
5	0xbe0aa47b	-0.13539307
6	0xbdd5b47c	-0.10434815
7	0xbe1f0487	-0.15529071
8	0xbe075fcc	-0.13220137
9	0xbe6f700c	-0.23382586
10	0x3ca3317a	0.019921053
11	0xbd899ab9	-0.06718964
12	0xbd393ec5	-0.045225877
13	0x3e79a31d	0.24378629
14	0xbea931d2	-0.33045822
15	0xbe5e49b2	-0.217078
16	0xbd2bcb3b	-0.041941863
17	0x3de83f79	0.113402314
18	0x3e3691be	0.17829034
19	0xbe0db5bc	-0.13838857
20	0xbe3dca1a	-0.18534127
21	0xbd3f2a96	-0.046671472
22	0xbe4794b7	-0.19490324
23	0xbe076b45	-0.13224514
24	0xbe4399cb	-0.19101636
25	0xbe7132f3	-0.23554592
26	0xbe500265	-0.20313413
27	0xbdf70498	-0.12061423
28	0xbd9db300	-0.07700157
29	0x3d733c55	0.05938371
30	0xbd32bb61	-0.04363573
31	0xbdc48d00	-0.09597206
32	0x3d35712d	0.044297386
33	0xbd1fbcce	-0.038998418
34	0xbe1f9191	-0.15582873
35	0xbd276db9	-0.040876124
36	0xbd360d45	-0.04444625
37	0xbe5c272a	-0.21499315
38	0xbe375865	-0.17904814
39	0xbdac1ab0	-0.08403528
40	0x3d984c29	0.074364014
41	0xbd3c9c59	-0.046047542
42	0xbe8f0db5	-0.27940145
43	0xbdcb98e6	-0.099412724
44	0xbdd72ecb	-0.10506972
45	0xbd6c885b	-0.057747226
46	0x3d4adefc	0.04952906
47	0xbc88eac0	-0.0167135
48	0xbe1edd3f	-0.15514086
49	0xbe08f8df	-0.13376187
50	0x3babab84	0.005238952
51	0xbdb935c2	-0.090434566
52	0xbde0f0d6	-0.10983436
53	0xbd807a35	-0.06273309
54	0xbe38d461	-0.18049766
55	0xbe40f9f8	-0.18845356
56	0xbdbb03a2	-0.09131552
57	0xbda25b85	-0.07927612
58	0xbdb3ae33	-0.0877346
59	0xbcdce7d2	-0.02696601
60	0xbde62cde	-0.112390265
61	0xbdd6c97e	-0.1048765
62	0xbdcd802e	-0.10034214
63	0xbd887e18	-0.066646755
64	0xbe08075d	-0.13284059
65	0xbd41f909	-0.04735664
66	0xbe6c8ea3	-0.23101287
67	0xbe265c37	-0.16246115
68	0xbdfc0c19	-0.12306995
69	0xbb848d51	-0.0040451665
70	0xbd1f1ac2	-0.038843878
71	0xbe7a3870	-0.24435592
72	0x3ea9d3a7	0.3316929
73	0xbe388964	-0.1802116
74	0xbe56dc0d	-0.2098238
75	0x3ca7b643	0.020472651

backbone.conv2.1.running_var f4 [76]
0	0x3ccb103d	0.024788016
1	0x3c9c2d5e	0.019064602
2	0x3cfa6165	0.03056402
3	0x3d128fbf	0.03578162
4	0x3caa65be	0.020800468
5	0x3c91fe79	0.017821537
6	0x3c932025	0.017959664
7	0x3c97472a	0.01846655
8	0x3d2ae23d	0.041719664
9	0x3ceff011	0.029289277
10	0x3cb8e03f	0.022567866
11	0x3c8dce03	0.017310148
12	0x3c9f823b	0.019471278
13	0x3c738805	0.014863973
14	0x3d243136	0.040085994
15	0x3d80cf60	0.06289554
16	0x3d0485d6	0.0323542
17	0x3c380d7d	0.011233685
18	0x3cd62df0	0.026144952
19	0x3d1502e7	0.03637972
20	0x3c9de923	0.019276207
21	0x3c8dda7a	0.017316092
22	0x3d034ff7	0.032058682
23	0x3c9a9aae	0.018872585
24	0x3d16baa5	0.03679909
25	0x3cd636a8	0.026149109
26	0x3d22e1be	0.039766066
27	0x3cb40842	0.021976594
28	0x3c5c3cc7	0.013442225
29	0x3c6e4f98	0.014545344
30	0x3c9fd512	0.01951078
31	0x3c89a0be	0.01680028
32	0x3d0f87ba	0.03504155
33	0x3cb843a5	0.022493193
34	0x3d172a84	0.03690578
35	0x3c41e063	0.011833283
36	0x3c7be1b0	0.015373632
37	0x3d0523c6	0.03250482
38	0x3c00d0b0	0.007862255
39	0x3c4e3cc0	0.012587726
40	0x3c027458	0.007962309
41	0x3c18be9e	0.00932279
42	0x3c9ed788	0.019389883
43	0x3c4f3505	0.012646918
44	0x3c73cfa5	0.014881049
45	0x3c1b0731	0.009462164
46	0x3c9e521b	0.01932626
47	0x3c9bd50d	0.019022489
48	0x3ca5604e	0.020187523
49	0x3ca2d68e	0.019877698
50	0x3c4d60bc	0.01253527
51	0x3c76709a	0.015041495
52	0x3c3de591	0.011590377
53	0x3c085d7d	0.008323071
54	0x3c5b665d	0.0133911045
55	0x3c4aea76	0.012385001
56	0x3c43f089	0.0119592035
57	0x3c2402e3	0.010010454
58	0x3c08f280	0.008358598
59	0x3c8e6675	0.01738284
60	0x3c4081a6	0.011749661
61	0x3c9151df	0.017739234
62	0x3c321171	0.010868416
63	0x3c5978ae	0.013273401
64	0x3c6cf6fb	0.014463182
65	0x3c0658b9	0.008199864
66	0x3c86b1eb	0.01644226
67	0x3c8df30d	0.01732781
68	0x3c1de8fc	0.009638067
69	0x3cb94aa4	0.0226186
70	0x3c0869ab	0.008325974
71	0x3c49ff74	0.012328971
72	0x3c80a31d	0.015702778
73	0x3caa2116	0.02076773
74	0x3cba6500	0.022753239
75	0x3c83c20a	0.016083736

backbone.conv3.0.weight f4 [114, 76, 3, 3]
0	0x3b7530f6	0.0037413216
1	0xbb50cb53	-0.0031859472
2	0x3a9e9f97	0.0012102005
3	0xbb4965b9	-0.0030730797
4	0x3b120799	0.002228236
5	0x3c00ce14	0.007861633
6	0xbc0c18fe	-0.0085508805
7	0x3b2183e5	0.0024645266
8	0xbc625517	-0.013814232
9	0xbbc95bc0	-0.0061449707
10	0xb991d988	-0.0002781863
11	0xbba69cbc	-0.005084602
12	0xbccbe247	-0.02488817
13	0xbcaf0407	-0.021364225
14	0xbbff4bc0	-0.0077910125
15	0xbc881bb2	-0.016614769
16	0xbcc9a245	-0.024613509
17	0xbbb16945	-0.0054141604
18	0xbc1e11bc	-0.009647783
19	0xbb44c8a7	-0.0030026825
20	0xba89517c	-0.0010476555
21	0x3c078087	0.008270389
22	0xbc1c3b70	-0.009535655
23	0xbab24166	-0.0013599813
24	0x3c1c3524	0.009534154
25	0x3bb5cae6	0.005547869
26	0x3c83e1ee	0.016098943
27	0xbbaa6247	-0.005199704
28	0x3b106137	0.00220306
29	0x3c7665cb	0.015038918
30	0x3c1e567d	0.009664175
31	0xbc3dc79a	-0.011583233
32	0x3be557c9	0.00699899
33	0xbc4203cb	-0.011841725
34	0xbc85a0ae	-0.01631197
35	0xbb1ae06b	-0.0023632299
36	0xbc59f37d	-0.013302681
37	0xbbde1bf4	-0.0067782346
38	0xbcd6c3c4	-0.026216395
39	0xbbe6fd9c	-0.0070492756
40	0xbbd7936f	-0.0065788548
41	0x3ba18bed	0.0049300105
42	0xbc2f211f	-0.010689049
43	0x3aa71698	0.0012747822
44	0x3919e669	0.00014677052
45	0xbcb22740	-0.021747231
46	0xba11d383	-0.0005562829
47	0x3c3fc577	0.011704794
48	0xbc0079b1	-0.0078415135
49	0xbbac87bc	-0.0052652042
50	0xbc0248ec	-0.007951956
51	0xbca5dd47	-0.020247115
52	0x397154d6	0.00023015155
53	0x3cd9360b	0.026515028
54	0x3c84037e	0.016114946
55	0x3c3be05f	0.011467068
56	0x3c361112	0.011112468
57	0xbb1f5ca6	-0.0024316697
58	0x3c09ad1e	0.008403091
59	0xbc81628a	-0.015794057
60	0x3a33ade5	0.00068542204
61	0x3b646f3f	0.0034856347
62	0xbbac2ecf	-0.0052546035
63	0x3ba95a56	0.0051682396
64	0x3bedb7da	0.007254583
65	0xbbeb71cf	-0.007185198
66	0xbae479f3	-0.0017431363
67	0x3b116453	0.0022185042
68	0xbbe18756	-0.0068825884
69	0xbcfb6464	-0.030687518
70	0xbcd01778	-0.025401816
71	0xbbdc8a3f	-0.0067303474
72	0xbc7b80a0	-0.015350491
73	0xbc24d1ff	-0.010059833
74	0xbbb5502a	-0.005533238
75	0xbb94b4fb	-0.004538176
76	0x3a4b40d9	0.00077534985
77	0x3c445907	0.011984116
78	0x3a6bf387	0.0009000827
79	0xba98bd05	-0.0011653012
80	0x3b926996	0.004468153
81	0x3c3407ab	0.010988156
82	0xba612e8d	-0.00085900055
83	0xbc1fc5e1	-0.009751768
84	0x3c7d604a	0.015464852
85	0x3ba10261	0.0049136137
86	0x3c373e0f	0.0111842295
87	0xbb3a60f8	-0.0028439146
88	0x3c2209ca	0.009890029
89	0x3c236dce	0.00997491
90	0xbaf1e4fd	-0.0018455085
91	0xbc3cbb89	-0.011519321
92	0xbc84ec37	-0.016225917
93	0xbc169ad8	-0.009192191
94	0xbc0b4c03	-0.008502009
95	0x3a4d8062	0.000783926
96	0xbbc1e33d	-0.0059169815
97	0x3c83286b	0.016010484
98	0x3c878eb3	0.016547536
99	0x3c35265b	0.011056508
100	0xbc22b014	-0.009929676
101	0xbcbd214d	-0.023087168
102	0xbc290285	-0.010315542
103	0xbb96bc41	-0.0046000783
104	0xbcd1bc9f	-0.025602637
105	0xbb735df2	-0.0037134853
106	0xbc5719a6	-0.013128674
107	0xbb821594	-0.0039698575
108	0x3c2fbd47	0.01072628
109	0x3b937f48	0.004501257
110	0xbbb8e2dd	-0.0056422786
111	0x3b3b6699	0.0028595089
112	0xbbedc4d1	-0.0072561284
113	0x3ab600bd	0.0013885718
114	0x3abe33d0	0.0014511291
115	0xba8f9078	-0.0010953089
116	0xbb80f1c0	-0.003935069
117	0xba8336dc	-0.0010010856
118	0x3bbd27ed	0.005772582
119	0x3ab1ad2c	0.0013555638
120	0xbb3ca75b	-0.0028786275
121	0xbae50da9	-0.0017475385
122	0xbc04480e	-0.00807382
123	0xb7d6abbd	-2.559076e-05
124	0xbc29921f	-0.010349779
125	0xbc29bcce	-0.010359956
126	0xbc16c4d8	-0.009202205
127	0xbc8e912b	-0.017403206
128	0x3b198655	0.0023426015
129	0xbb0b83fa	-0.002128838
130	0x3b37edcb	0.002806532
131	0xb9b5f3dd	-0.00034704703
132	0xbafbf93a	-0.0019224056
133	0xbc2c18cf	-0.010503962
134	0xbceb916b	-0.028755864
135	0x3b30cd2b	0.0026977758
136	0xba104ea6	-0.00055048836
137	0xbc2884c5	-0.010285561
138	0x3c840068	0.016113475
139	0x3bbb9832	0.00572493
140	0xbc310cf5	-0.010806312
141	0x3d24b91c	0.040215597
142	0x3b9818c8	0.004641626
143	0xbb12fd98	-0.0022428986
144	0xbc13fcc9	-0.009032437
145	0xbbd96523	-0.006634371
146	0xbc166157	-0.009178481
147	0x3c2e33ff	0.010632514
148	0xbbfad3af	-0.007654629
149	0xbb8bc8df	-0.004265889
150	0x3c3b0ef3	0.011417138
151	0x3c68eb53	0.014216262
152	0x3cdb291c	0.026753
153	0x3ad4ed5f	0.0016245059
154	0x39ac5667	0.0003287077
155	0xba26d614	-0.00063642976
156	0xbadaff25	-0.0016708119
157	0x3b9dba85	0.0048134946
158	0xbbe2de5c	-0.00692348
159	0xbaa4ed8d	-0.0012583003
160	0x3b850122	0.004058973
161	0x3aaf83b0	0.0013390686
162	0x3bfcc838	0.0077142976
163	0x3c97caab	0.018529257
164	0xbb885e6d	-0.004161647
165	0x3b861ea3	0.0040930077
166	0x3cd15051	0.025550993
167	0x3c111ee2	0.008857461
168	0x3c9a1c56	0.01881234
169	0x3cbb39cf	0.022854714
170	0x3d06c66f	0.032904085
171	0xbcde2586	-0.027117502
172	0xbd19cf0e	-0.03755098
173	0xbce39d85	-0.027785072
174	0xbb97215f	-0.0046121324
175	0xbba5fb6c	-0.005065372
176	0xbcc32160	-0.023819625
177	0x398560bd	0.00025439812
178	0xbb4f1c10	-0.003160242
179	0x3c13cdca	0.009021232
180	0x3c27e770	0.01024805
181	0x3c66445f	0.014054387
182	0x3c2eb0d0	0.010662273
183	0x3c1fdb6d	0.009756905
184	0xbbbe78d7	-0.005812745
185	0x3ae7fcd4	0.001769925
186	0xb9ee7bdb	-0.00045487177
187	0x3b9a12fa	0.004701969
188	0xbc7c2a01	-0.015390874
189	0x3b684f5d	0.0035447695
190	0x3bc5893c	0.0060283225
191	0xbbbb74b3	-0.0057206987
192	0x3cd6e799	0.026233481
193	0x3c438a61	0.011934848
194	0x3bc06b28	0.005872149
195	0x3b2dac95	0.0026500572
196	0x3ca6e227	0.02037151
197	0x3cc0eeb3	0.02355132
198	0xbc3c2e4e	-0.011485649
199	0x3c7a555e	0.015279142
200	0x3bb69f72	0.0055732066
201	0x3a057d0c	0.0005092181
202	0xbc2b2343	-0.010445419
203	0x3c061466	0.008183574
204	0xbab17121	-0.0013537743
205	0x3c0cff97	0.008605859
206	0xbb0084e9	-0.001961047
207	0x3bbf132c	0.005831143
208	0xba75a561	-0.00093706517
209	0x3c9367a9	0.017993765
210	0xbb456f89	-0.0030126295
211	0xbb3bd156	-0.002865871
212	0x3bd05e31	0.0063588847
213	0xbb7c9fcc	-0.0038547395
214	0xba2bd110	-0.0006554285
215	0xbc82000e	-0.015869167
216	0x3c2ef4c6	0.010678476
217	0x3c40e6e3	0.011773798
218	0x3c08da1b	0.008352782
219	0xba8a1c61	-0.0010537022
220	0x3c459dd8	0.012061559
221	0x3c9647fc	0.018344872
222	0x3ca81145	0.020516047
223	0x3c982041	0.018570067
224	0x3c816e43	0.015799647
225	0x3c30a9f0	0.010782704
226	0xbc247a10	-0.010038868
227	0xbc7620c5	-0.015022461
228	0x3c40b61a	0.011762166
229	0xbbf09d09	-0.007342939
230	0xbc96e2eb	-0.01841875
231	0xbb3bfed9	-0.0028685837
232	0xb955ec4e	-0.00020401293
233	0xbbba7540	-0.005690247
234	0x3bf3465a	0.007424158
235	0x3c974b21	0.018468441
236	0x3c9d6b93	0.019216334
237	0x3ca8cc52	0.02060524
238	0x3ca724a7	0.02040322
239	0x3c6c615d	0.01442751
240	0x3cd456df	0.02592033
241	0x3c703686	0.014661437
242	0x3bf68089	0.007522647
243	0x3b9c5328	0.004770655
244	0x3c077823	0.008268389
245	0xbaa86b48	-0.0012849355
246	0xbc06bed1	-0.008224205
247	0xbc2fd430	-0.010731742
248	0x3c01669f	0.007898002
249	0xbcabba69	-0.02096291
250	0xbb924221	-0.0044634496
251	0xbbe83955	-0.0070869126
252	0x3ca7a655	0.020465055
253	0x3baad22e	0.0052130437
254	0x3aae7d8f	0.0013312566
255	0xb9335ee6	-0.00017106123

backbone.conv3.0.bias f4 [114]
0	0x33accccc	8.0466265e-08
1	0x327f02f4	1.4843625e-08
2	0x3217dcdc	8.839574e-09
3	0x329855d1	1.7734154e-08
4	0x3163e2fd	3.3161875e-09
5	0x3386e086	6.280702e-08
6	0xb2e67f2e	-2.6833359e-08
7	0x333d0856	4.4012573e-08
8	0xb27a8cc2	-1.458392e-08
9	0xb2f42c8a	-2.8425593e-08
10	0xb244ff35	-1.1466729e-08
11	0x32efbdd8	2.7909593e-08
12	0x32574e31	1.2532426e-08
13	0x333e0be8	4.424865e-08
14	0xb1085e47	-1.9844195e-09
15	0xb29aa2e8	-1.800204e-08
16	0x33a8c3ef	7.85875e-08
17	0xb34c42c2	-4.7558167e-08
18	0xb20dcf5f	-8.254431e-09
19	0x3257cb75	1.2560908e-08
20	0x322babf0	9.992604e-09
21	0xb2081c9a	-7.922745e-09
22	0xb274b905	-1.4244738e-08
23	0x33af76bb	8.1706695e-08
24	0x31f8ec18	7.2445907e-09
25	0x32df8d62	2.602491e-08
26	0x331b4119	3.6147956e-08
27	0xb3539a91	-4.9267843e-08
28	0x31f75aa8	7.1989525e-09
29	0x315f41a1	3.2488077e-09
30	0x3256c3a7	1.2500926e-08
31	0xb3add394	-8.094426e-08
32	0xb2c289aa	-2.2647175e-08
33	0xb37a8320	-5.832692e-08
34	0xb30d07da	-3.283626e-08
35	0xb310c8ad	-3.3710126e-08
36	0xb3440bd1	-4.5645553e-08
37	0x333fb55a	4.463559e-08
38	0x32fc31df	2.935934e-08
39	0xb30178e8	-3.0145117e-08
40	0xb34142e3	-4.4997147e-08
41	0xb0fa5585	-1.82142e-09
42	0xb2e3d4a9	-2.6522985e-08
43	0xb32a51b7	-3.965553e-08
44	0xb31cfcaa	-3.6551377e-08
45	0x30a2eacc	1.1853785e-09
46	0xb3442d64	-4.567609e-08
47	0xb2a810b3	-1.9565368e-08
48	0xb346086a	-4.610812e-08
49	0xb28feeea	-1.6756037e-08
50	0x31d8a5eb	6.30529e-09
51	0xb375d567	-5.7237596e-08
52	0x32ce52dd	2.4019238e-08
53	0xb3790597	-5.7979914e-08
54	0xb36ec2af	-5.5590757e-08
55	0xb2fbce04	-2.931393e-08
56	0xb30a9d1d	-3.2273523e-08
57	0x33afd1d0	8.187237e-08
58	0xb31576a1	-3.479966e-08
59	0x32dfc17c	2.6048603e-08
60	0x3254a3f7	1.2377305e-08
61	0xb21ab318	-9.004701e-09
62	0x33d9bccc	1.0139192e-07
63	0xb31f6533	-3.7112112e-08
64	0xb26269c4	-1.317898e-08
65	0xb33850bb	-4.2914262e-08
66	0xb28f1ae7	-1.6659625e-08
67	0x322341ff	9.5028545e-09
68	0x337d9b9a	5.904767e-08
69	0x31999aa1	4.4704653e-09
70	0xb20d0cbb	-8.210175e-09
71	0x339e395c	7.367882e-08
72	0x32273c53	9.7343955e-09
73	0xb2b1e9c5	-2.0711818e-08
74	0x32d6e3b8	2.5016433e-08
75	0xb3293908	-3.940025e-08
76	0xb2b7d28a	-2.1399746e-08
77	0xb30f0526	-3.3299465e-08
78	0xb3ef76c7	-1.115091e-07
79	0xb2f1cd12	-2.8149348e-08
80	0xb3bb3cfa	-8.718958e-08
81	0xb2adaf14	-2.0219467e-08
82	0xb12b2f97	-2.4910827e-09
83	0xb32cceb8	-4.023488e-08
84	0xb3803d43	-5.971608e-08
85	0x334567c8	4.5962025e-08
86	0x328710cf	1.5723712e-08
87	0xb11faaea	-2.3234699e-09
88	0x319ad628	4.5063366e-09
89	0x32935992	1.7153784e-08
90	0xb0e8a5ff	-1.6927401e-09
91	0xb31bfb31	-3.6317207e-08
92	0xb3b633b3	-8.4844395e-08
93	0x339fc629	7.4400596e-08
94	0xb38f7e69	-6.68195e-08
95	0xb2273507	-9.732736e-09
96	0x33003a94	2.98556e-08
97	0xb3dbde30	-1.0238398e-07
98	0x325917c6	1.2636468e-08
99	0x33a4b228	7.6692515e-08
100	0xb1d494ab	-6.1869136e-09
101	0xb1999521	-4.46984e-09
102	0x33d9c022	1.0139799e-07
103	0x328de21c	1.6517383e-08
104	0x32cf888f	2.4160071e-08
105	0xb28dd325	-1.6510578e-08
106	0xb34cf0b9	-4.7716387e-08
107	0x341e4d65	1.4743053e-07
108	0x33133fe0	3.42842e-08
109	0xb0fb4edc	-1.8285067e-09
110	0x33af36e2	8.159056e-08
111	0xb36e6b52	-5.55113e-08
112	0xb2e5c345	-2.6747907e-08
113	0xb358bc64	-5.046276e-08

backbone.conv3.1.weight f4 [114]
0	0x3f194185	0.598656
1	0x3f1899d0	0.596097
2	0x3f13b75b	0.57701653
3	0x3f19f485	0.6013873
4	0x3f25288c	0.64514995
5	0x3f18597a	0.5951153
6	0x3f0d58ac	0.5521343
7	0x3f14877c	0.5801923
8	0x3f10afd1	0.56518275
9	0x3f19ff0a	0.60154784
10	0x3f12596e	0.5716771
11	0x3f111ea2	0.56687367
12	0x3f142674	0.57871175
13	0x3f1762a2	0.59134877
14	0x3f1c1b51	0.6097918
15	0x3f11f498	0.57013845
16	0x3f18f69a	0.59751284
17	0x3f13476b	0.5753085
18	0x3f0fd68e	0.5618676
19	0x3f0da258	0.5532584
20	0x3f13e28b	0.5776755
21	0x3f1a54d6	0.602857
22	0x3f1ac227	0.604525
23	0x3f135318	0.57548666
24	0x3f0f69e0	0.5602093
25	0x3f19461f	0.5987262
26	0x3f17c600	0.592865
27	0x3f1a2bf7	0.60223335
28	0x3f0e7882	0.5565263
29	0x3f1e9d60	0.61958885
30	0x3f2c3a7c	0.6727674
31	0x3f123f9d	0.57128316
32	0x3f113262	0.56717503
33	0x3f0c08c5	0.5470088
34	0x3f0f3e3c	0.5595434
35	0x3f1414ba	0.57844126
36	0x3f078b66	0.5294708
37	0x3f118c3c	0.56854606
38	0x3f196597	0.5992064
39	0x3f109a16	0.56485116
40	0x3f0edfa7	0.55810016
41	0x3f0ba13f	0.54542917
42	0x3f1259c9	0.5716825
43	0x3f1224d9	0.57087475
44	0x3f12def0	0.57371426
45	0x3f1fe0b1	0.62452227
46	0x3f181e3f	0.5942115
47	0x3f14369f	0.57895845
48	0x3f10a519	0.5650192
49	0x3f1225be	0.5708884
50	0x3f14cf31	0.5812865
51	0x3f1574b3	0.58381194
52	0x3f13b53e	0.5769843
53	0x3f0793a5	0.5295966
54	0x3f16782b	0.5877711
55	0x3f161b49	0.58635384
56	0x3f153bc1	0.582943
57	0x3ef28137	0.47364208
58	0x3ef58206	0.47950763
59	0x3f0f0cb0	0.55878735
60	0x3f0ceb01	0.5504609
61	0x3edda376	0.43288773
62	0x3f4d7c6c	0.8026798
63	0x3f11fbef	0.57025045
64	0x3f174507	0.590897
65	0x3efd3ac9	0.49458912
66	0x3ef02a3e	0.46907228
67	0x3f0848fb	0.5323636
68	0x3f1cea8b	0.61295384
69	0x3f02c977	0.5108866
70	0x3efe6d08	0.4969256
71	0x3f5a1de7	0.8520188
72	0x3f0498b6	0.5179552
73	0x3f0ebc0a	0.55755675
74	0x3ef77af8	0.48336005
75	0x3f241846	0.6409954
76	0x3f1ce86b	0.6129214
77	0x3ef2ba14	0.4740759
78	0x3f0675e2	0.52523625
79	0x3f3c5f16	0.7358259
80	0x3eea0f32	0.45714718
81	0x3f2c993c	0.6742132
82	0x3f0385f4	0.5137627
83	0x3ef45eba	0.4772852
84	0x3f0242cb	0.5088317
85	0x3f0eb5f5	0.55746394
86	0x3f204832	0.6261016
87	0x3f123577	0.5711283
88	0x3f2ffb9a	0.6874329
89	0x3f1f727e	0.62284076
90	0x3f002b24	0.5006583
91	0x3f0b2056	0.54346216
92	0x3f0fba82	0.56143963
93	0x3f4f1208	0.8088689
94	0x3f09f992	0.5389644
95	0x3f061c99	0.52387387
96	0x3f2afe8f	0.66794676
97	0x3ef253f5	0.4732968
98	0x3f13a0e4	0.57667375
99	0x3f1678e3	0.5877821
100	0x3eeffd64	0.4687301
101	0x3f18d8d7	0.5970587
102	0x3f160239	0.5859714
103	0x3f028c58	0.509954
104	0x3f1e66af	0.6187543
105	0x3f1b0f4a	0.60570204
106	0x3f009915	0.50233585
107	0x3f3d5e69	0.73972183
108	0x3f1e6413	0.6187145
109	0x3f1377e9	0.57604843
110	0x3f2980c7	0.66212124
111	0x3f02fc2a	0.5116602
112	0x3f03471e	0.5128039
113	0x3f089371	0.5334998

backbone.conv3.1.bias f4 [114]
0	0x3d8817a3	0.06645133
1	0x3c90bcca	0.017668147
2	0x3d27baff	0.040949818
3	0x3dad98ff	0.08476447
4	0x3d25ba31	0.04046077
5	0x3d29730b	0.04136948
6	0x3d26a4dc	0.040684566
7	0x3db13e20	0.086544275
8	0x3d5f8a29	0.05457512
9	0x3d1e5767	0.038657572
10	0x3cfc70bf	0.03081548
11	0x3c9bf418	0.019037291
12	0x3d467470	0.048450887
13	0x3d5afd27	0.05346408
14	0xbb88ad7c	-0.0041710716
15	0x3dc865f3	0.0978507
16	0x3d66869a	0.05628071
17	0x3b5756bf	0.0032858101
18	0x3d33ad7a	0.043866612
19	0x3cc8d175	0.02451394
20	0x3cb346b6	0.021884304
21	0xbb9e3648	-0.004828248
22	0x3d4b2630	0.049596965
23	0x3c1dd310	0.009632841
24	0x3d2f66d7	0.042822685
25	0x3cfa9a6d	0.030591214
26	0x3ca33989	0.019924896
27	0xbb311875	-0.0027022634
28	0x3c9f03e6	0.019411039
29	0x3d2b35b3	0.04179926
30	0x3d5ba048	0.053619653
31	0x3cf411bf	0.029793618
32	0x3d39e379	0.04538295
33	0x3d03c399	0.03216896
34	0x3d4a8aa6	0.04944863
35	0x3d0179e4	0.031610385
36	0xbb961f21	-0.0045813476
37	0x3ce2c2d3	0.02768079
38	0x3d8567b7	0.06513923
39	0x3cbd03a0	0.023073018
40	0x3c8fb02d	0.017540062
41	0x3dbb462d	0.09144244
42	0x3caa0af1	0.02075717
43	0x3d318bda	0.043346263
44	0x3d5131d4	0.05107291
45	0x3ce67040	0.028129697
46	0x3d6a532a	0.057208218
47	0x3d3fa79a	0.046790697
48	0x3de31cd8	0.11089486
49	0x3e195300	0.14973068
50	0x3cdbab2d	0.026815021
51	0x3d5c9d72	0.05386109
52	0x3da3bbf2	0.07994832
53	0x3cadb7d0	0.021205813
54	0x3d0dc57c	0.034612164
55	0x3d59f02e	0.05320757
56	0x3dbe67b5	0.09297124
57	0xbd66bbfc	-0.05633162
58	0x3c775bc5	0.015097563
59	0x3d7b2370	0.061313093
60	0x3da65ce1	0.08123184
61	0xbd4f2c91	-0.05057961
62	0xbbc7b550	-0.006094612
63	0x3da7d93e	0.081957325
64	0xbc593c2e	-0.013258977
65	0x3cc0f239	0.023553
66	0x3d5039ad	0.050836254
67	0x3d923d2d	0.071405746
68	0x3c017c86	0.007903224
69	0x3ddcc046	0.10778861
70	0x3e6a96f2	0.22909144
71	0xba5fd8b1	-0.00085390644
72	0x3d870bde	0.0659406
73	0xbcb9d9fc	-0.02268695
74	0xbd8458bf	-0.064622395
75	0x3d04df1c	0.032439336
76	0xbd03f777	-0.032218423
77	0x3da5aca1	0.08089567
78	0x3d85bb57	0.06529873
79	0xbd82f9d1	-0.06395305
80	0xbd46778d	-0.048453856
81	0x3e2b1f76	0.1671122
82	0x3bf1555f	0.0073649134
83	0x3d6083b1	0.05481309
84	0xbcdca704	-0.026935108
85	0x3b9e4a2f	0.0048306207
86	0x3e23ff53	0.16015367
87	0x3d2efbf3	0.042720746
88	0x3d108298	0.035280794
89	0x3c5ce75b	0.013482894
90	0xbba29c14	-0.0049624536
91	0x3d0d4870	0.03449291
92	0x3dd9dda3	0.10637977
93	0x3e29bdd5	0.16576321
94	0x3deca5b7	0.11555045
95	0x3dc11c1e	0.09429191
96	0xbc296898	-0.0103398785
97	0x3cf3ac1b	0.029745152
98	0x3d73b2a2	0.05949653
99	0x3e1887e5	0.1489559
100	0x3d818146	0.06323485
101	0xbd18d0e4	-0.03730859
102	0x3bca26ca	0.006169175
103	0x3cd1c129	0.025604801
104	0xbd576b75	-0.052592713
105	0x3ebb6d85	0.36606994
106	0x3db024c3	0.08600762
107	0x3dca7a0d	0.098865606
108	0x3ddbcb2f	0.107321136
109	0x3e27d885	0.1639119
110	0x3ca611ac	0.020272098
111	0x3d3b3533	0.04570503
112	0x3d19903f	0.03749108
113	0x3cda0081	0.026611568

backbone.conv3.1.running_mean f4 [114]
0	0xbe9ec7ae	-0.3101172
1	0xbef87588	-0.4852717
2	0xbe7ad11b	-0.2449383
3	0xbe0b82f9	-0.13624181
4	0xbe5a4382	-0.21314815
5	0xbe95542a	-0.29165775
6	0xbc5593c7	-0.013035721
7	0xbe67d748	-0.22640717
8	0xbec2a64d	-0.38017502
9	0xbe2acda7	-0.16680013
10	0xbde1a62e	-0.110180244
11	0xbd89f50b	-0.06736191
12	0xbe96bc91	-0.2944074
13	0xbe26631c	-0.16248745
14	0xbe560a00	-0.20902252
15	0xbe453ee1	-0.19262268
16	0xbcb2e9e2	-0.02184004
17	0xbf064eff	-0.5246429
18	0xbd3ecebf	-0.046583887
19	0x3e2f2af4	0.17106229
20	0x3d41c34f	0.0473054
21	0xbe2f051d	-0.17091794
22	0xbdeb085f	-0.11476206
23	0xbe1ea850	-0.15493894
24	0xbe4f3bb1	-0.20237614
25	0xbcf7c9d3	-0.030247604
26	0xbed74a7c	-0.42049015
27	0xbe60b843	-0.2194529
28	0xbd3bc09c	-0.045837983
29	0xbcacc387	-0.021089328
30	0xbe844cb0	-0.25839758
31	0xbe9a8671	-0.30180696
32	0xbdc5213b	-0.09625479
33	0xbde366c1	-0.11103583
34	0xbda85066	-0.0821846
35	0x3c9d6bb5	0.019216398
36	0xbc5f47a1	-0.0136279175
37	0x3de1a353	0.1101748
38	0xbe3cbb14	-0.1843074
39	0xbeaaadaa	-0.3333562
40	0x3e45ae09	0.1930467
41	0xbe351ce9	-0.1768681
42	0xbe78b62e	-0.24288246
43	0xbead7e6d	-0.33885518
44	0xbd7daf03	-0.061934482
45	0xbe6d64ee	-0.23183033
46	0xbe9a6c98	-0.30160975
47	0xbe584ed7	-0.21123825
48	0xbeaa462d	-0.33256665
49	0xbe35f378	-0.17768657
50	0xbedcb4f1	-0.43106797
51	0xbe9a8683	-0.3018075
52	0xbd70a5b2	-0.05875177
53	0xbe6b40da	-0.22973958
54	0xbe9d280c	-0.30694616
55	0xbe310f4f	-0.17290996
56	0xbd585d40	-0.052823305
57	0x3e039f6e	0.12853786
58	0x3e35ad50	0.17741895
59	0xbeca6cfc	-0.39536273
60	0xbe6091ab	-0.21930568
61	0x3ed20a60	0.4102354
62	0xbeb7f56b	-0.35929427
63	0xbe16389c	-0.14670032
64	0xbda04908	-0.078264296
65	0x3dce5188	0.100741446
66	0xbe59c039	-0.21264733
67	0xbe758ff7	-0.239807
68	0xbe86a3ce	-0.26296848
69	0xbd43fc9e	-0.047848336
70	0xbe765e96	-0.24059519
71	0xbe9f5f68	-0.31127477
72	0xbd921348	-0.07132584
73	0xbe067266	-0.13129577
74	0x3f00e928	0.5035577
75	0xbe8c48f7	-0.27399418
76	0xbe99af05	-0.30016342
77	0xbe856630	-0.26054525
78	0x3cc1168d	0.023570323
79	0xbd7055be	-0.05867552
80	0xbe57642e	-0.2103431
81	0xbdcdb648	-0.10044533
82	0xbd5e0e8d	-0.054213095
83	0xbddbd776	-0.10734455
84	0xbd8d2abe	-0.06892918
85	0xbd54715e	-0.051865928
86	0xbdbf542a	-0.09342225
87	0xbc6951b8	-0.014240675
88	0xbe1b9bde	-0.15196177
89	0xbdbc797b	-0.09202858
90	0xbd32dd13	-0.043667864
91	0xbebc42c1	-0.3676968
92	0xbe1d7dcf	-0.15380023
93	0xbeb6a727	-0.35674402
94	0xbe94f7a6	-0.2909519
95	0x3ddabed3	0.10680928
96	0xbf055d7c	-0.5209577
97	0x3b938e89	0.0045030755
98	0xbe031019	-0.1279911
99	0xbe94aa91	-0.29036382
100	0x3e68c56a	0.22731557
101	0xbc8eae6d	-0.017417157
102	0xbe84b887	-0.25922033
103	0x3cd50ed3	0.026008045
104	0x3e0724fa	0.13197699
105	0xbc8d8b60	-0.017278373
106	0xbe88a237	-0.2668626
107	0xbee2524a	-0.44203407
108	0xbd26377a	-0.04058025
109	0xbe5ce538	-0.21571815
110	0xbd5f7659	-0.054556224
111	0xbdd7d71a	-0.10539074
112	0xbdcdea37	-0.100544386
113	0xbdf4707d	-0.11935518

backbone.conv3.1.running_var f4 [114]
0	0x3d313486	0.04326298
1	0x3d67d07c	0.05659531
2	0x3d0885c9	0.033330712
3	0x3cf1ea79	0.02953075
4	0x3d238723	0.0399238
5	0x3d02410a	0.031800307
6	0x3cc78cad	0.024359072
7	0x3d0987cb	0.033576768
8	0x3d2b36e8	0.04180041
9	0x3d35511a	0.044266798
10	0x3cd1a969	0.025593476
11	0x3cd90642	0.026492242
12	0x3ce2d288	0.02768828
13	0x3cde08e6	0.027103852
14	0x3d32f327	0.04368892
15	0x3d3aa4df	0.04556739
16	0x3d4383a7	0.047732975
17	0x3d3d5397	0.046222296
18	0x3cf6c10b	0.030121347
19	0x3d7b7b14	0.061396673
20	0x3ce54edb	0.027991703
21	0x3cfe6301	0.031053068
22	0x3d1c0bd7	0.03809723
23	0x3cdffc0b	0.027341863
24	0x3cd4261b	0.025897076
25	0x3d1c8076	0.038208447
26	0x3d0993b0	0.03358811
27	0x3cd00a30	0.025395483
28	0x3c96d43d	0.01841175
29	0x3cfc8ef9	0.030829893
30	0x3d446e41	0.04795671
31	0x3d5d8c8a	0.054089107
32	0x3cd36cb5	0.025808671
33	0x3ce86925	0.02837045
34	0x3ced3aa9	0.028958635
35	0x3ce2c987	0.027683986
36	0x3d1ff058	0.03904757
37	0x3cb13a93	0.021634376
38	0x3cd1f748	0.025630608
39	0x3cdefb4f	0.027219443
40	0x3cd2f834	0.025753118
41	0x3ceaa947	0.02864517
42	0x3cc1009a	0.023559857
43	0x3d40f2a1	0.04710639
44	0x3cb0bfd8	0.021575853
45	0x3d28af48	0.041182786
46	0x3d0f88af	0.03504246
47	0x3cfb897b	0.030705204
48	0x3d052164	0.032502547
49	0x3cf07d45	0.029356608
50	0x3d19d7cf	0.037559327
51	0x3d0c07b9	0.034187052
52	0x3d04ccf7	0.032422032
53	0x3cea782b	0.028621754
54	0x3d0de366	0.034640692
55	0x3d0b638f	0.034030493
56	0x3cb8f96c	0.022579871
57	0x3cce1834	0.025158025
58	0x3c9f5db9	0.01945387
59	0x3d11d2bd	0.035601366
60	0x3d1f8829	0.03894821
61	0x3d3634fa	0.044484116
62	0x3d31728d	0.043322135
63	0x3d00dbc4	0.031459585
64	0x3d060ed9	0.032729004
65	0x3c9900c4	0.018677123
66	0x3cc6b4a7	0.024256064
67	0x3d02eefb	0.03196619
68	0x3ce7b8c1	0.02828634
69	0x3d101f7d	0.03518628
70	0x3d135b56	0.035975777
71	0x3d1b5e2e	0.037931614
72	0x3cd0a20a	0.025467891
73	0x3ce79a9c	0.028271966
74	0x3d14f207	0.036363628
75	0x3d2442ec	0.040102884
76	0x3d19f36a	0.037585653
77	0x3cc6f624	0.02428729
78	0x3d2654d0	0.040608227
79	0x3d10d8c3	0.03536297
80	0x3cdc196e	0.026867595
81	0x3d742ad3	0.059611153
82	0x3cc78a17	0.024357839
83	0x3cf73c53	0.030180132
84	0x3cce1879	0.025158154
85	0x3d021a64	0.03176345
86	0x3cc5f132	0.024162862
87	0x3cbc1bae	0.022962417
88	0x3d45776e	0.0482096
89	0x3d26aa6c	0.04068987
90	0x3d2ee7d9	0.042701576
91	0x3d05816b	0.032594126
92	0x3d65fa3d	0.05614685
93	0x3d4b1bc5	0.04958703
94	0x3d4d967f	0.050192352
95	0x3d02a0f0	0.031891763
96	0x3d589bc9	0.052882943
97	0x3cdeca5e	0.027196106
98	0x3d1a1ba8	0.03762403
99	0x3cbf1f0e	0.023330238
100	0x3cb43589	0.021998184
101	0x3d0db42e	0.03459566
102	0x3cda8323	0.026673859
103	0x3cc5ecc9	0.02416076
104	0x3d0be00a	0.034149207
105	0x3d7f8bc1	0.06238914
106	0x3d17f63f	0.037100073
107	0x3d4881de	0.048951976
108	0x3d3198fd	0.04335879
109	0x3cf15405	0.029459009
110	0x3cf8872a	0.030337889
111	0x3cdd51b6	0.027016502
112	0x3cc0a0ca	0.02351417
113	0x3d1c5681	0.038168434
