pretrained/transformed_model_15_old_torch.pth (torch_old, 227030 bytes, 26 tensors)

backbone.conv1.0.weight f4 [14, 3, 11, 11]
000000 48 d6 73 3c c7 12 b2 3b ad 1d 2a bb a0 ec a6 bb
       0.014882632 0.0054343673 -0.002595763 -0.005094126
000010 60 bf 14 3b 28 59 11 3c ab 5e 34 3c cb 26 2a ba
       0.0022697076 0.008871354 0.011008899 -0.0006490766
000020 ee 73 7a bb c9 a2 9f bb 87 2f 07 bb dd d0 90 3c
       -0.0038216072 -0.0048717004 -0.0020627694 0.017677719
000030 7d e0 15 3a 8d ad f1 ba 33 e4 12 bb d2 42 be 3b
       0.000571735 -0.0018438563 -0.002241385 0.0058063054
000040 f3 1d 5f 3c 28 2f 64 3c a7 60 d2 ba 76 e2 37 bc
       0.01361798 0.013927259 -0.0016050533 -0.011223426
000050 4b d5 3a bc df 27 d6 bb 1f 0e 92 3c 4c 97 58 3b
       -0.011403392 -0.0065355147 0.017829 0.0033049164
000060 67 39 0e bc b7 79 6f ba b2 cf 8b 3c a5 10 c0 3c
       -0.008680678 -0.00091352634 0.01706681 0.023445437
000070 a9 0f 0a 3c d3 a9 c6 b9 f7 0d 95 bc 00 b3 ae bc
       0.008426585 -0.00037892032 -0.018195136 -0.021325588
000080 e2 f4 26 bc da 9a 49 3c 5a cf 2a bc 8b df a1 bc
       -0.010190221 0.012304986 -0.010425413 -0.019759914
000090 6d 56 4a ba f2 7c a5 3c 75 34 f1 3c de cf 76 3c
       -0.0007718567 0.02020118 0.029443959 0.015064208
0000a0 f9 7c 97 bc 32 47 e7 bc 7d 77 a4 bc d5 81 69 bc
       -0.018492209 -0.02823219 -0.020076508 -0.014252146
0000b0 cd 37 61 3c 88 40 64 bc 3e 6b a9 bc ea 62 a7 3b
       0.013746214 -0.013931401 -0.02068102 0.005108227
0000c0 d8 75 06 3d eb 9d 03 3d a4 26 0d 3c 67 08 cc bc
       0.03282723 0.032133024 0.00861517 -0.02490635
0000d0 8b 8e 22 bd 5f 5e c8 bc 1e 24 45 bc af c9 24 3c
       -0.03968672 -0.024459062 -0.012032537 0.010057851
0000e0 a2 85 43 bc e1 67 a0 bc db 78 29 3c bf d0 2e 3d
       -0.011933716 -0.019580783 0.010343756 0.042679545
0000f0 bb b2 1c 3d 14 fb 41 3c 14 cd ec bc da 3b 0d bd
       0.03825639 0.011839647 -0.028906383 -0.034480907
000100 ba 55 c5 bc d4 bb aa bb 7e cd e3 3b 56 6f d0 bc
       -0.02408873 -0.005210379 0.006951987 -0.025443714
000110 19 cc 48 bc ec 6a 69 3c ab 19 50 3d 17 63 4a 3d
       -0.012255692 0.014246684 0.05080573 0.049410906
000120 08 74 16 3c d9 8a 0d bd cd 1b 1b bd d2 69 b5 bc
       0.009182937 -0.034556244 -0.03786831 -0.022145186
000130 42 fb 26 bb e6 c3 44 3b 4e b2 ef bc 60 1f e0 bc
       -0.0025479351 0.003002399 -0.029259827 -0.02735871
000140 4f 69 78 3c 43 98 37 3d 28 65 43 3d 11 34 3c 3c
       0.015161826 0.044822942 0.047703892 0.011487023
000150 68 c5 d8 bc 4d 66 2e bd 07 cb e1 bc bf ec 2d bb
       -0.026461318 -0.04257803 -0.027562631 -0.0026538817
000160 c6 5b 36 3b e2 90 08 bd 9d 72 94 bc 13 ec 99 3c
       0.0027825697 -0.033341296 -0.018121058 0.018789327
000170 f5 9c 30 3d ea 5b 52 3d 91 64 19 3c 8f 89 86 bc
       0.043118436 0.051357187 0.009362356 -0.016423015
000180 d1 41 fa bc b8 5b ac bc 85 4a 5a 3a ab 5b 08 3b
       -0.030548962 -0.021039829 0.00083271443 0.0020806591
000190 93 e3 c4 bc d9 f4 be bc a7 d1 4f 3c 23 7a 1c 3d
       -0.024034297 -0.023310112 0.012684262 0.038202416
0001a0 51 1c 0e 3d 53 24 71 3c 8c a7 5b bc 62 d7 ee bc
       0.034694973 0.014718133 -0.0134066455 -0.029155437
0001b0 41 3f 3f bc 8a a3 b7 ba a0 15 5f bc 7e cf 0b bd
       -0.011672796 -0.001401053 -0.013615996 -0.034133427
0001c0 6e 18 10 bd e9 42 36 bc 25 52 34 3c 70 b2 8a 3c
       -0.035179548 -0.011124351 0.011005913 0.016930789
0001d0 2b 5b 1a 3b 6d 4e 84 bc c5 34 e9 bc d5 f5 38 bc
       0.0023552876 -0.016150678 -0.028467545 -0.01128908
0001e0 94 fc dd b8 69 fd 05 3c de e0 11 bc b4 e7 6b bc
       -0.000105851475 0.0081780935 -0.00890371 -0.014398504
0001f0 08 f3 41 bc 2e 5b 12 bc 57 05 c5 3a 71 80 36 3c
       -0.011837728 -0.008932872 0.0015031499 0.011139021
000200 54 5c fe 3a 78 fa 24 3b 4b 75 cd 3a 1e 20 57 3b
       0.0019406178 0.0025173705 0.0015675215 0.003282554
000210 7f 4e e1 3b 30 b5 49 bc 5b 7a 26 bc 4a 93 df bb
       0.0068758125 -0.012311265 -0.010161008 -0.006822978
000220 8e 2e 0e bb 7b 67 38 3c 1b 5a 6c 3c 77 e5 83 3b
       -0.002169523 0.01125514 0.01442578 0.004025157
000230 de 09 e0 bb 77 36 21 bc 29 7e 2a 3b 1c ec c0 3b
       -0.0068371138 -0.009839646 0.0026015139 0.0058875214
000240 9b ae 10 bc f6 16 53 bc 9e de 64 bb 4b cb 2c 3c
       -0.008830692 -0.012883892 -0.003492273 0.010546516
000250 4b 41 ba 3c 7f 5c b8 3c e8 3a ec 3b 4b 82 43 bb
       0.022736212 0.022505043 0.0072091706 -0.00298323
000260 f9 cb e3 bb 37 06 b5 3b b3 6a 2e 3b 4f 7c 8a bc
       -0.0069518057 0.0055244225 0.002661389 -0.016904978
000270 94 4e e5 bc b9 92 af bb 3a a5 c9 3c de df 0e 3d
       -0.02799157 -0.005358067 0.024614919 0.034881465
000280 43 43 ab 3c 24 f6 1e bb 6f f1 4e bc 20 63 ed bb
       0.020906096 -0.0024255598 -0.012630804 -0.0072444826
000290 bc 24 02 3c 3e 07 b0 3a b9 2b c7 bc 47 5d c9 bc
       0.0079433285 0.0013429893 -0.02431284 -0.02458061
0002a0 0c d1 32 3b e0 c1 f6 3c 1c 3a 28 3d 72 94 9a 3c
       0.0027285246 0.030121744 0.041071042 0.018869612
0002b0 c0 1e b6 bb a4 b6 7a bc 70 db 1a bb d2 f8 02 3c
       -0.005557865 -0.015302334 -0.002362933 0.007993894
0002c0 32 c3 06 ba 61 1d c4 bc 1d ad b9 bc 7b 39 08 3c
       -0.00051407807 -0.02393979 -0.022665555 0.008314486
0002d0 35 07 42 3d 66 82 4f 3d 60 54 92 3c f1 b7 26 bc
       0.047370154 0.050661467 0.017862499 -0.010175691
0002e0 c0 05 80 bc 14 1b 87 3a 6c 32 88 3c 3a 74 54 3b
       -0.015627742 0.0010307753 0.016625606 0.003241791
0002f0 59 60 dc bc 1c cf e3 bc 53 9f 9f 3c d4 7d 45 3d
       -0.02690141 -0.027808718 0.019485151 0.048215702
000300 b1 e3 5d 3d 8c f2 c2 3c 07 4a 8f bc 2d 37 9a bc
       0.05417222 0.023797296 -0.017491354 -0.018825138
000310 4e 11 56 bb 44 16 5a 3c a3 30 93 3a 5f 15 17 bd
       -0.0032664123 0.013310973 0.0011229705 -0.036885615
000320 0c 04 ef bc 52 37 77 3c b1 89 40 3d 93 e4 6a 3d
       -0.029176734 0.015088873 0.047006313 0.05734689
000330 c2 ec c4 3c 8e f0 0c bc 31 51 d1 bc c8 ea 93 bb
       0.024038676 -0.008602275 -0.02555141 -0.004514072
000340 dc 5d 52 3c 7c db 97 bb 39 37 06 bd 54 e0 ab bc
       0.012839761 -0.004634319 -0.03276751 -0.020980991
000350 60 fa 66 3c 5d ed 2c 3d 68 1f 3f 3d 34 22 c0 3c
       0.01409778 0.042218555 0.04666081 0.02345381
000360 b2 b5 49 bc 0d f3 71 bc ff e8 52 bb 07 01 92 3c
       -0.012311386 -0.0147674205 -0.0032182334 0.017822756
000370 9e 3b 04 bb 97 9a 07 bd 1f ef b5 bc ec 90 e0 39
       -0.0020177136 -0.033106413 -0.022208748 0.00042832585
000380 e8 3c 05 3d bd 13 17 3d 49 b4 30 3c 54 b7 00 bb
       0.032528788 0.03688406 0.010785171 -0.0019640522
000390 ce b9 38 bc 25 38 60 3b 3f c8 c5 3b e7 0b d2 bc
       -0.011274768 0.0034213152 0.006035834 -0.025640441
0003a0 45 b8 3e bd f2 c6 32 bd 98 05 71 bc 84 57 cc 3b
       -0.046562452 -0.04364676 -0.014710806 0.0062360186
0003b0 46 e5 88 3c d1 4f 44 3b d5 cd 8d bb 97 34 2a bc
       0.016710889 0.00299548 -0.0043275156 -0.010388515
0003c0 60 13 40 bb af be 1a 3c 9c 9c 53 bb d5 5a f6 bb
       -0.0029308423 0.009444877 -0.0032289391 -0.0075181522
0003d0 83 ad 66 bc 1c 80 43 bc 98 22 2c bc 55 b5 45 3a
       -0.014079454 -0.011932399 -0.010506295 0.0007541974
0003e0 97 bb a9 3c 7c 51 9c 3c 47 29 71 3c 14 93 69 3c
       0.020719333 0.019081824 0.014719314 0.014256258
0003f0 7c e0 c6 3c 3d 29 ff bb 94 b3 a1 bc 59 23 04 bd
       0.024276964 -0.0077868984 -0.01973895 -0.032260273

backbone.conv1.0.bias f4 [14]
000000 07 e0 3a 2e 11 46 7b af 50 92 06 30 89 57 c2 af
       4.249048e-11 -2.285321e-10 4.895684e-10 -3.5350592e-10
000010 45 1a 7f b0 f2 b3 36 30 90 8b c8 b0 40 44 95 2f
       -9.280579e-10 6.646693e-10 -1.4591581e-09 2.7151437e-10
000020 08 9b 7e b0 1a 08 e9 af 0a 08 8f 2f ed 1c 4d b0
       -9.2624974e-10 -4.238821e-10 2.601726e-10 -7.461967e-10
000030 5b 7b af 2f d9 fa b4 ae
       3.1919964e-10 -8.230012e-11

backbone.conv1.1.weight f4 [14]
000000 bf 24 94 3e f9 e4 aa 3e 99 03 a6 3e 2f 1f ad 3e
       0.28934285 0.33377817 0.3242462 0.33812854
000010 80 a2 c0 3e 51 34 9d 3e fb 17 ae 3e 60 02 7d 3e
       0.37623978 0.30703977 0.3400267 0.24707937
000020 d5 80 b8 3e ac 8f 84 3e 63 94 89 3e 1f 89 9b 3e
       0.3603579 0.25890863 0.26871023 0.30378053
000030 28 6c df 3e 73 9d a8 3e
       0.43637204 0.32932624

backbone.conv1.1.bias f4 [14]
000000 22 d6 83 3e c6 67 fb 3c c4 d7 ad 3e 61 70 61 3e
       0.25749308 0.030689131 0.3395368 0.22015525
000010 71 a8 1d 3e 07 d1 65 3e 21 c2 60 3e b1 f1 8e 3e
       0.15396287 0.22443019 0.21949054 0.2791877
000020 12 e2 a2 3e b9 8a 3d 3e 0d 75 90 3d 76 bd 60 3e
       0.31813103 0.1850995 0.07053576 0.21947274
000030 99 74 ef 3d e0 b6 b7 3e
       0.11692161 0.3588171

backbone.conv1.1.running_mean f4 [14]
000000 57 e6 86 c1 20 29 ce 41 a2 fe 02 42 7a 10 0c 42
       -16.86247 25.77008 32.748665 35.01609
000010 10 30 73 c2 6a af 9c c1 e2 88 94 c2 c8 48 88 c0
       -60.796936 -19.585651 -74.26735 -4.2588844
000020 50 9d a4 c1 07 a5 ea c0 cc b3 16 c1 71 b1 5b c1
       -20.576813 -7.332645 -9.418896 -13.730821
000030 77 be 38 c2 94 be 5c 41
       -46.186 13.796528

backbone.conv1.1.running_var f4 [14]
000000 a7 bd a4 44 02 5f 44 44 73 87 ed 44 3d ac 0e 45
       1317.9266 785.4845 1900.2328 2282.765
000010 9e a8 fb 44 7f df 9c 44 b1 bc c1 44 d8 b4 55 45
       2013.2693 1254.9843 1549.8966 3419.3027
000020 92 3f 7e 45 3f 09 06 45 d5 0b 87 44 b3 35 57 45
       4067.9731 2144.578 1080.3698 3443.3562
000030 32 7d ff 44 f4 c1 12 45
       2043.9124 2348.122

backbone.conv2.0.weight f4 [38, 7, 5, 5]
000000 35 c7 c6 bc 52 6c ae bc 97 31 a4 3b ca a7 63 bc
       -0.024264911 -0.021291886 0.0050107944 -0.0138949845
000010 14 bc 8e bc 28 5f cb bb 1b cd a3 bb b6 dc 0b 3c
       -0.017423667 -0.006206412 -0.0049988157 0.008536508
000020 95 51 58 bb 68 9a 84 bb 5f a3 b9 3b ea 4a 1e ba
       -0.003300761 -0.004046727 0.0056652273 -0.0006038385
000030 8c 8e 14 3c 0c 89 90 ba 2b 7f ae ba 88 68 8a 3c
       0.009067189 -0.0011027171 -0.0013313045 0.016895548
000040 c1 cb d9 3b ad 5d f9 3b e9 9d 9f b9 53 dc 00 3c
       0.006646604 0.007610044 -0.00030444495 0.007865029
000050 95 2b fe 3c 0e 38 c6 3c 78 10 4c 3c 45 29 5a 3c
       0.03102664 0.02419665 0.012455098 0.0133155035
000060 ce 11 0f 3d 34 e3 2e ba 35 a6 7e 39 e2 0d 08 3c
       0.03492909 -0.0006671429 0.00024285245 0.008304091
000070 ba 4f 4b 3c b0 8c 87 3c 6a fa 24 bc d8 61 fa 3b
       0.012409145 0.016546577 -0.010069469 0.0076410584
000080 96 10 2e 3c 64 90 85 3c a1 81 82 3c dd 8e c6 3b
       0.010624072 0.016304202 0.015930953 0.006059511
000090 66 46 7a 3c 0c dc df 3c 75 a7 4e 3c a9 74 bc 3c
       0.015275573 0.027326606 0.012613167 0.023004847
0000a0 d0 60 55 ba 2b d3 99 3c 13 74 9d 3c 94 5b 98 3b
       -0.00081397314 0.01877745 0.019220388 0.004649589
0000b0 99 71 7b 3c 0b 35 09 38 2b 05 0c 3c 0d fc b1 3c
       0.015346908 3.2712745e-05 0.008546154 0.021726632
0000c0 8d e9 1a 3c 76 60 aa 3b cc ab 04 bd e8 22 15 bd
       0.009455097 0.0051994873 -0.0323904 -0.036410242
0000d0 72 41 09 bd 98 d2 9e bc be f9 4e bc a5 86 62 bc
       -0.03350968 -0.019387528 -0.012632785 -0.013826047
0000e0 22 96 09 bc f0 a6 a6 bc c0 36 65 bc 69 ed c0 bc
       -0.008397611 -0.020343274 -0.013990104 -0.023550706
0000f0 30 68 21 bc 9a a0 dc 3b dc fd 0b bc 65 aa 8c bc
       -0.0098515 0.0067330124 -0.0085444115 -0.017171094
000100 0b fd b9 bc 10 af 53 bc f6 bf f5 3b aa 06 5e 3b
       -0.022703668 -0.012920156 0.00749969 0.0033878484
000110 5b 5e a0 bb 4e bf ed bb cd 19 9f 3b 14 5f bd 3c
       -0.0048940605 -0.0072554713 0.0048553706 0.023116626
000120 a1 1e 91 3c 88 1d fd 3c 6e 4d cf 3c 46 04 0f bd
       0.0177148 0.03089787 0.025305476 -0.034916185
000130 87 61 4b bc ad 74 81 bb dd 42 69 3c ae 0c 1b 3d
       -0.012413389 -0.0039506764 0.014237133 0.03785389
000140 1a 56 bb bc 7c 39 ab bc 88 9d e2 ba a4 37 8d 3c
       -0.022868205 -0.020901434 -0.001728938 0.017238446
000150 67 a8 1b 3d bb c9 9e bc 35 d6 8b 39 03 f4 13 3c
       0.038002398 -0.019383302 0.00026671743 0.009030345
000160 61 42 1c 3c c7 81 0c 3d ac 49 d6 bc 03 c9 22 bc
       0.00953731 0.034303453 -0.026158176 -0.00993562
000170 a8 ea 27 3b 49 db 84 3c d3 2d 07 3d 2d a4 14 bd
       0.0025622044 0.016217845 0.033002686 -0.036289383
000180 68 49 c9 bc 8f 40 b7 bb 69 fe 59 3c f9 05 26 3d
       -0.024571136 -0.005592413 0.013305285 0.04053304
000190 4d 88 88 3c bf a1 68 3c 6e 8d d5 3c 12 17 25 3c
       0.016666556 0.0141987195 0.026068415 0.010076301
0001a0 05 ca 6c bb eb b4 90 3c c4 d7 34 3b 52 22 4c 3a
       -0.0036131155 0.017664393 0.0027594427 0.00077870965
0001b0 72 ed a0 3b 38 b2 64 bb d1 fa a2 3a 21 3a 24 bc
       0.004911118 -0.0034896266 0.0012434368 -0.010023625
0001c0 44 b6 c1 bc 99 8f be bb 59 f5 ac 3b 25 e1 3a 3b
       -0.023646481 -0.005815458 0.005278271 0.0028515544
0001d0 30 69 60 bc 92 17 9b bc d3 96 10 bc c8 e3 56 3c
       -0.013696954 -0.018932138 -0.008825022 0.013115831
0001e0 a8 15 3a 3c 27 21 55 ba b3 43 1e 3b 4c bf f2 3b
       0.011357702 -0.0008130245 0.0024149239 0.0074080583
0001f0 a2 dd d8 3c cd f7 93 bc 3f 1a ca bc 10 0d 09 bd
       0.02647287 -0.018062497 -0.024670718 -0.033459723
000200 89 47 f6 bc d7 36 9d ba 6e e9 8c bb 0e ca 0f 3b
       -0.030063407 -0.0011994493 -0.004300288 0.0021940502
000210 83 3b 06 bc 9e e9 a6 bb 19 f1 cd bb 0e c5 36 bb
       -0.0081929 -0.0050937673 -0.0062848446 -0.002788845
000220 5d 8c 67 3c 0d 45 e7 3a 9d 03 91 3b bc 40 28 3b
       0.014132586 0.001764448 0.0044254796 0.002567335
000230 ba 7e 01 bc 8d b2 e6 3b 1f 7d 17 3c 9c 88 c4 3b
       -0.007903749 0.007040328 0.00924614 0.0059977304
000240 50 56 55 3b b1 8f b8 3a 2b c4 84 3c e2 d5 2c 3c
       0.0032552667 0.0014080909 0.016206821 0.0105490405
000250 74 6a 20 3c d3 92 f3 3c 7f 24 d0 3b 1f d4 9b ba
       0.009791005 0.029733097 0.006352007 -0.0011888779
000260 03 da 9b bc 35 54 1c bc 66 89 42 bc 2c b6 26 bc
       -0.019024855 -0.009541561 -0.011873579 -0.010175269
000270 80 d9 b8 3b 26 56 5a bb 49 6f 3e 3b aa 7e 3b 3c
       0.0056411624 -0.0033315509 0.002905803 0.011443773
000280 54 12 c6 bc d0 9f 12 ba 60 3c 8a ba e6 24 3d 3c
       -0.024178661 -0.0005593272 -0.0010546558 0.011544442
000290 e4 15 59 3c 80 59 bf bc d9 cd de ba 6f aa 0b bc
       0.013249848 -0.023358107 -0.0016998603 -0.008524521
0002a0 bc be 6a 3c 81 7a 9a 3c 3a f2 fa bc ec a9 05 bc
       0.014327701 0.018857243 -0.03063308 -0.008158188
0002b0 a5 06 02 bc 44 e7 c5 3c 94 77 d0 3c 2c 7b 3b 3b
       -0.0079361545 0.024158128 0.025447644 0.0028607352
0002c0 6a 12 9a 3c b7 95 47 3c 2d ac 5d 3c 58 d6 62 bc
       0.018807609 0.012181691 0.013529819 -0.013845049
0002d0 90 b6 aa ba d5 d3 e9 b9 50 8e 59 3b 72 2d 28 3c
       -0.0013024379 -0.0004459905 0.0033196397 0.010264741
0002e0 29 dd e7 ba 36 d5 ac ba c2 c8 23 3b 70 80 59 bb
       -0.0017689812 -0.00131861 0.0024991487 -0.0033188127
0002f0 e6 3b ae 3b dd de 05 bb ac f8 e1 3a d2 02 96 bb
       0.005317199 -0.0020427026 0.0017240248 -0.004577973
000300 73 8d 56 3b 11 90 a1 3a 6f 31 73 39 ff dc 00 bb
       0.003273812 0.001232626 0.00023192701 -0.0019662974
000310 4d 90 1d b9 02 e2 08 bb db 14 7b bc 60 0e c2 bc
       -0.00015026443 -0.0020886664 -0.015324797 -0.023688495
000320 38 2a 21 3c 66 d8 94 bb eb 44 00 bc d4 7a d8 bc
       0.009836726 -0.0045423983 -0.007828931 -0.026425757
000330 1b eb 9e bc 87 b8 64 3c ef 8f 32 ba 46 e5 5e bb
       -0.019399216 0.01396001 -0.0006811609 -0.003401117
000340 1b b7 17 bc 0c a3 46 bc 4e 39 39 3c 41 0e 39 3c
       -0.009259964 -0.012123834 0.011305166 0.011294902
000350 6e 01 21 bc a2 c1 fd bb 69 96 93 bb 6f b5 75 3c
       -0.009827001 -0.00774403 -0.0045040143 0.01499687
000360 a6 fc 56 3c e6 4f 04 3b b1 99 1b bc c1 ca 51 bc
       0.0131217595 0.0020189225 -0.009497092 -0.012804688
000370 25 b2 cf 3b e6 82 78 3c fe a6 ac 3a 34 5d 91 bb
       0.006338375 0.015167927 0.0013172326 -0.0044361595
000380 41 eb c3 bc ac 39 6c 3c b4 5c 5b 3c 75 53 b5 bb
       -0.023915889 0.014418047 0.013388801 -0.0055336305
000390 1d b5 be 3c ea 5d 48 3b 01 95 bd 3a 1b f6 91 3c
       0.02327972 0.0030573555 0.0014463962 0.017817548
0003a0 fd 95 5e 3c e0 9e 5c 3c 73 b6 0e bc dd 6d 49 ba
       0.013585565 0.013465613 -0.0087104915 -0.00076839124
0003b0 4d 39 57 3c b4 e9 b9 3c 98 91 94 3c 7a be a4 bc
       0.01313622 0.022694446 0.01813583 -0.020110358
0003c0 dc d8 0d 3c 7c 66 9c 3b 11 9a 31 3c 97 75 9d 3b
       0.00865766 0.0047729593 0.010839955 0.0048052776
0003d0 50 9c e4 bc a3 8f af 3c 4c 0c 27 3c d9 97 21 ba
       -0.027906567 0.021430796 0.010195803 -0.00061642897
0003e0 24 3b a2 bc 12 8f 8c bd df f8 8a 3c 1e 60 5c 3c
       -0.019803591 -0.06863226 0.016964374 0.0134506505
0003f0 36 88 4e 3c 14 b4 05 bd 56 ba b2 bd a5 dd b4 3c
       0.012605717 -0.03264244 -0.08726947 0.022078345

backbone.conv2.0.bias f4 [38]
000000 73 06 e9 b2 c0 14 26 b3 62 d6 bd b3 6b bc 31 33
       -2.7127703e-08 -3.866876e-08 -8.839994e-08 4.138239e-08
000010 8a 8d 31 32 04 b8 06 33 68 25 b4 33 83 5a 1e b4
       1.0334938e-08 3.1366667e-08 8.388707e-08 -1.4747825e-07
000020 69 99 dd 33 3f 9f 5b 33 d2 72 92 b3 7c e3 6f b3
       1.03190196e-07 5.1134744e-08 -6.8195405e-08 -5.585342e-08
000030 be 99 41 b3 9f 83 35 b3 a1 5f 99 b3 62 46 d7 b3
       -4.5076142e-08 -4.2262055e-08 -7.1420125e-08 -1.002452e-07
000040 b4 97 1e 30 0d d0 6c b3 9a 14 80 b3 2a 1f ba b2
       5.769565e-10 -5.5137253e-08 -5.964212e-08 -2.1667422e-08
000050 3d df 1d b4 60 4f 88 33 f9 54 33 33 95 8f 0a 34
       -1.4702978e-07 6.347432e-08 4.1753967e-08 1.2904486e-07
000060 19 1e 02 32 48 9c be b2 df 8f ed 32 f1 b0 52 b1
       7.573839e-09 -2.218998e-08 2.7655856e-08 -3.0659602e-09
000070 55 3f 0b b2 7c 5a 8c af 76 a7 33 b3 4d 7f 83 32
       -8.105265e-09 -2.5530145e-10 -4.182899e-08 1.5308297e-08
000080 6f 5a 57 b3 ce d9 3f 33 f6 d7 9e b2 c2 d6 32 b4
       -5.0140837e-08 4.4668745e-08 -1.8491829e-08 -1.665567e-07
000090 d7 55 1d b3 9c 5b aa 31
       -3.6632482e-08 4.958066e-09

backbone.conv2.1.weight f4 [38]
000000 52 f2 7d 3e 16 50 0f 3f c4 f0 0c 3f 84 36 b7 3e
       0.24799469 0.55981576 0.5505488 0.3578378
000010 e5 c8 09 3f ee ba 0b 3f ba 47 21 3f aa 28 a0 3e
       0.53822166 0.5458211 0.6300007 0.31281024
000020 0b dc 20 3f 39 fa d2 3e a8 5a 97 3e 4f d4 a5 3e
       0.6283576 0.4120653 0.29561353 0.3238854
000030 09 c3 f1 3e 0a 55 f2 3e e0 b8 66 3e 2e 14 cb 3e
       0.47219113 0.47330505 0.22531462 0.39663833
000040 ba c8 97 3e 0d ea c2 3e 40 8d 03 3f 1a f2 bd 3e
       0.2964533 0.38069192 0.51387405 0.3709877
000050 8a e3 88 3e e5 a0 b5 3e 13 41 e5 3e 99 e6 ef 3e
       0.267361 0.35474315 0.4477621 0.4685562
000060 95 a8 da 3e c6 ee e1 3e aa e5 cc 3e b9 00 d9 3e
       0.42706743 0.44127482 0.4001897 0.42383364
000070 a1 46 de 3e 70 68 04 3f e8 29 c4 3e 5a 37 ee 3e
       0.4341326 0.5172186 0.38313222 0.46526605
000080 12 af d5 3e ee cd ce 3e 4f 04 c7 3e 2b c5 ab 3e
       0.4173513 0.40391487 0.38870475 0.33548865
000090 9b 04 f2 3e 91 8b ec 3e
       0.4726914 0.4620023

backbone.conv2.1.bias f4 [38]
000000 7a 6f 13 3d 37 dc 2f bc 05 da d7 bd 50 d0 1b 3e
       0.035994984 -0.010733656 -0.10539631 0.15216184
000010 7e fc d1 bd 88 2a a9 bd 0a 98 2d 3c 03 bb c0 bc
       -0.10253237 -0.08260065 0.010595331 -0.023526674
000020 1a 8b 3c be 56 db 00 bd f1 7a 23 ba 64 38 9e 3c
       -0.18412438 -0.031459175 -0.0006236276 0.019313999
000030 d1 66 fc bd b8 74 16 bc 33 80 3e 3e 31 c5 3c bd
       -0.12324298 -0.009183101 0.18603592 -0.046086494
000040 dc fa a4 bc 1f 94 4e 3b 70 c9 50 bd 03 34 c8 3d
       -0.02013915 0.0031521393 -0.050973356 0.097755454
000050 6f f0 06 be b3 86 33 3d aa b0 5e 3d 6e 93 82 3d
       -0.13177656 0.04382963 0.0543677 0.06375776
000060 ba a9 84 3d 90 ae a5 bc 98 aa a1 bd 9f 16 5f bd
       0.06477685 -0.02022484 -0.07893866 -0.054464933
000070 98 a5 6e bd b2 48 3a be 18 17 83 bb d3 b8 1e bd
       -0.05826339 -0.18191794 -0.0040005557 -0.03875048
000080 cf 89 a0 3d 46 3b 7e bc 95 5b e0 bc b9 72 9f bd
       0.07838785 -0.015517062 -0.02738742 -0.077855535
000090 52 50 51 bd 8a aa a4 bc
       -0.05110199 -0.02010085

backbone.conv2.1.running_mean f4 [38]
000000 a2 53 fd 3c 44 e1 99 be bb 55 3e be ec a3 d9 3d
       0.030923668 -0.30054677 -0.18587391 0.10626969
000010 4c d2 a3 be 10 a0 89 be b8 49 cf be 5a e9 17 3e
       -0.3199638 -0.2687993 -0.4048593 0.1483511
000020 1e e5 4b be 4c 68 b1 bd 18 66 54 bd 62 30 fa bd
       -0.1991162 -0.08662471 -0.051855177 -0.122162595
000030 f7 80 12 be f3 e8 2f be f4 f2 b8 3a a1 b8 07 be
       -0.14307009 -0.17178707 0.0014110492 -0.13254024
000040 eb 30 af 3c cd 82 98 3c 06 69 ab be 4b 5c de bd
       0.02138563 0.018617058 -0.33478564 -0.10857447
000050 06 5f 8f 3e 05 f8 88 bd 61 83 97 bd 31 15 81 be
       0.28002185 -0.06687931 -0.073981054 -0.2521148
000060 3d 7c 22 be 24 b7 4b bd 49 33 aa bc f4 49 df bc
       -0.15867706 -0.049735203 -0.020776408 -0.027256943
000070 7c aa ac bd 90 95 4f be 07 59 2d bd de 4b d1 bd
       -0.08430955 -0.20271897 -0.04232123 -0.10219549
000080 c3 28 5a bd d2 ef 29 be bd 35 47 be c1 35 71 3e
       -0.05326153 -0.1659539 -0.19454093 0.23555662
000090 0c 63 29 be d4 f5 8d bc
       -0.1654169 -0.017329134

backbone.conv2.1.running_var f4 [38]
000000 85 52 4f 3c 4d 0c ff 3c 9c b3 e1 3c c1 dc a0 3c
       0.0126539515 0.031133795 0.027551465 0.019636514
000010 07 87 23 3d 97 30 f5 3c fd ff fe 3c e6 3c 2c 3c
       0.039923694 0.029930396 0.031127924 0.010512566
000020 c0 7b e0 3c a1 2f 9f 3c 81 cf 35 3c 47 64 5a 3c
       0.027402759 0.01943189 0.011096836 0.013329572
000030 e6 f2 14 3d 6d 4d 8a 3c 1d 24 25 3c fc c7 0d 3d
       0.03636446 0.016882623 0.010079411 0.034614548
000040 ae b7 16 3c 8f bc 5a 3c e8 f6 f1 3c a8 3b 41 3c
       0.009199066 0.01335062 0.02953668 0.011794008
000050 d7 e8 d6 3b ac 61 ec 3b 3f c9 4a 3c 07 f4 3c 3c
       0.0065585184 0.007213792 0.012377082 0.01153279
000060 1e 54 17 3c 87 9f 3f 3c 9b 6d 56 3c 03 08 30 3c
       0.009236364 0.011695749 0.013087655 0.010744098
000070 54 e9 00 3c e7 35 71 3c ca 57 14 3c d3 e0 96 3c
       0.00786813 0.014722324 0.009054134 0.018417751
000080 75 5a 4f 3c e4 e9 45 3c 78 a8 f2 3b 05 d8 51 3c
       0.012655844 0.01207969 0.007405337 0.012807851
000090 af 97 1b 3c 2c b3 88 3c
       0.009496613 0.016686998

backbone.conv3.0.weight f4 [56, 38, 3, 3]
000000 50 04 b6 ba 0a 55 5e bc 85 35 85 bc 3b ec 1e 3c
       -0.0013886783 -0.01357008 -0.016260872 0.009699876
000010 ea 49 82 3b dd d8 01 bc 5c e0 09 3d b0 8d 23 3c
       0.0039760964 -0.007925239 0.03366123 0.009982511
000020 d6 ee 6e 3c 21 b4 f9 3b e8 4a 95 3c 92 23 ec 3b
       0.01458331 0.00762035 0.018224195 0.0072063887
000030 34 6b bb 3c 19 99 47 3c 08 b5 21 3c b7 8b 50 bb
       0.022878267 0.012182497 0.009869821 -0.0031821558
000040 22 6d 78 3c ff d7 14 bc c8 2e 00 bd 8e 7a d1 bb
       0.015162738 -0.009084701 -0.031294614 -0.0063927835
000050 7d 79 22 bd 28 e1 42 bc a2 8d 31 bc 57 c6 ac bc
       -0.03966664 -0.011894502 -0.010836991 -0.02109067
000060 fc 4f cd 3b 2c 64 8c 3c 32 72 dd 3b fe 68 7b 3b
       0.0062656384 0.01713761 0.006757998 0.003836214
000070 86 d4 68 3b fd 92 51 bc ea 71 45 3b f6 e7 ec ba
       0.0035527064 -0.012791392 0.0030127713 -0.0018074501
000080 53 3d f2 bb 11 d5 d8 3c aa 81 e1 3b c3 41 ea 3c
       -0.0073925643 0.026468785 0.0068819122 0.02859581
000090 56 70 1c bd 7c 9d 43 bc 1f e4 97 bc 50 b0 8c bc
       -0.03819307 -0.011939403 -0.018541394 -0.017173916
0000a0 02 7f bd 3b 91 b6 1a bc ae 64 3d bc 75 2b a5 bb
       0.005782963 -0.009442941 -0.011559648 -0.005040581
0000b0 63 b5 c6 3b f9 43 bd 3a 65 da 49 3c 3a 21 21 3c
       0.0060641035 0.0014439813 0.012320136 0.009834582
0000c0 f5 d7 1d 3c 4d 69 46 3c 0f 28 48 bc 03 c6 4a 3c
       0.009634008 0.012110067 -0.012216582 0.012376311
0000d0 14 11 ed 3b de 59 1b 3c 70 dd d7 bb a6 7f d3 bb
       0.007234702 0.009481875 -0.0065876767 -0.006454426
0000e0 ea b1 07 3c 7f 9b a7 bc 3d 0d 5e bc 97 ab 3b bc
       0.008282164 -0.020459889 -0.013552961 -0.011454484
0000f0 48 c5 14 bd 71 1d df bb 9e 4f 97 bc b3 5c 37 3c
       -0.036320955 -0.0068089296 -0.018470582 0.011191535
000100 d0 a2 06 bc b9 57 2e bc 46 d3 89 bb ac ee b0 bb
       -0.008217528 -0.010641032 -0.004206094 -0.0053995457
000110 7b 8c 4a bc 59 a7 23 bc 4a f7 76 3a 08 04 dc 3b
       -0.012362595 -0.009988629 0.0009421004 0.0067143477
000120 7d dd 59 bd 87 05 0d bc 95 93 11 b9 21 a3 bb bc
       -0.053189743 -0.008607275 -0.00013883256 -0.022904934
000130 a1 f8 98 3a c5 2e 7d bb a5 fb 16 bd 68 10 84 bb
       0.0011670777 -0.0038632613 -0.03686108 -0.004030276
000140 ea 5a be bb 7e d5 25 ba 33 07 36 3c 7b c7 0f bc
       -0.0058091776 -0.00063260633 0.011110115 -0.008775587
000150 9e 5c 83 bc 10 d3 21 bc 41 41 b4 bc 2c ed 39 bc
       -0.016035374 -0.009876981 -0.022003772 -0.01134805
000160 c9 ff ba bb 10 d9 e5 bb 50 00 85 3b aa 8a af 3c
       -0.0057067615 -0.0070144013 0.004058875 0.021428425
000170 21 34 5b 3c b4 e7 26 3c 49 a7 04 3c f8 15 f1 3b
       0.013379128 0.010187078 0.0080965245 0.007357355
000180 4e a0 97 ba 40 ff 4a bc ce 12 b0 bc 00 1a 9b 3c
       -0.001156816 -0.012389958 -0.021493342 0.018933296
000190 a1 7f ee 3b ac a2 10 3c e8 0f 8b 3c 60 00 ba 3c
       0.007278398 0.0088278465 0.016975358 0.022705257
0001a0 1e 44 bf 3b 8f 81 bd 3b 39 ac 8a 3b 59 46 18 3c
       0.0058369776 0.005783267 0.0042319563 0.009294116
0001b0 a0 87 55 bd 61 c8 69 bc 1a 50 86 bc 57 49 b1 bc
       -0.052131295 -0.014268965 -0.016395617 -0.021641416
0001c0 65 77 02 3b c4 c5 1a bc 0f 72 49 bc dd 7b 12 3c
       0.001990759 -0.009446565 -0.01229526 0.008940664
0001d0 b7 72 e3 b9 85 c3 a6 bc 09 30 94 39 6f 59 d7 bb
       -0.00043382283 -0.020356903 0.0002826455 -0.0065719406
0001e0 b6 11 a1 bc 10 8e f9 bb 37 2b e2 bb ba 28 08 bd
       -0.019661766 -0.007615812 -0.0069021243 -0.033241965
0001f0 f0 df 20 bc 57 90 90 bb cc ad e8 bc 7d d7 b4 bc
       -0.009819016 -0.004411738 -0.028403185 -0.02207541
000200 0c e6 16 bc d7 20 3a bc b1 f7 53 3b 5e 9d e5 3b
       -0.009210121 -0.011360369 0.003234368 0.007007285
000210 b2 f7 6e 3c 60 e3 a5 3a 05 97 01 3c 09 77 cc bc
       0.014585422 0.0012656264 0.007909541 -0.024959104
000220 69 78 9f bb 9e 6b de bc a6 9d 14 3c e2 c2 0f 3c
       -0.004866649 -0.027150925 0.009070789 0.008774491
000230 a7 c6 10 3c 26 65 11 3c 32 65 63 3b 7b ff 29 bc
       0.008836425 0.008874213 0.0034697768 -0.010375853
000240 dd bb 88 bc 5d 57 03 bc 97 88 ac b9 ae f9 28 bb
       -0.016691143 -0.0080164345 -0.00032908164 -0.0025783586
000250 70 3f 48 3c ed 9d 49 3c 99 c9 4b 3b 69 45 5e 3c
       0.012222156 0.012305719 0.0031095503 0.013566353
000260 0d d1 cf 3c 39 d8 fe 3c c8 22 3a 3c b2 86 ef 3b
       0.025368238 0.031108962 0.011360832 0.007309758
000270 5b aa 9f 3c 9b 0e 33 3c 7f d4 4e bc fa 4e 2c 3c
       0.019490412 0.010928775 -0.012623905 0.010516876
000280 30 79 68 bc 78 19 8a bc ae dd d2 ba c1 06 08 3c
       -0.01418905 -0.016857848 -0.0016087794 0.0083023915
000290 bf 7a 3b bb aa ca ab 39 9b 16 78 bb 7e d5 15 bc
       -0.0028607098 0.00032766658 -0.003785527 -0.009145139
0002a0 db 40 d6 bc 8d ba 90 bc 8a b6 18 bd 67 e4 1b 3c
       -0.026153972 -0.01766708 -0.037283458 0.009514905
0002b0 c4 6d 79 3c 01 a2 e6 bb 1c 1c f6 ba d1 dd f0 3c
       0.015223924 -0.0070383553 -0.0018776688 0.029402645
0002c0 6f 80 d6 3b c7 46 90 3b d0 3c c2 3c cd b9 00 bc
       0.006546072 0.0044029686 0.023710638 -0.007856798
0002d0 0a b3 74 ba ba 6a 31 3c 9e f9 28 bc bf e8 36 3c
       -0.000933454 0.010828668 -0.01031342 0.011163889
0002e0 7e ae 10 3c 7e 38 97 bb ec e3 6b 3c e4 e9 9d 3b
       0.008830665 -0.0046148887 0.0143976025 0.0048191417
0002f0 b2 e9 47 bc 30 e0 1f bc 43 91 2a bc c4 4d bb bb
       -0.012201713 -0.00975804 -0.01041061 -0.0057160575
000300 79 ef 14 bc dc ba 20 3b 49 55 6e bc dd 06 a5 bc
       -0.009090298 0.002452544 -0.014546701 -0.020144874
000310 b6 5c 25 bc ad 09 7e bc 9d c7 6d bc 7a f8 b2 bc
       -0.010092905 -0.015505237 -0.014512924 -0.021846998
000320 56 0b 53 bc a0 00 8c bc 5a 00 0c bd 2f af ad bb
       -0.012881121 -0.017090142 -0.034180023 -0.0053004245
000330 0b 43 6c bc 17 2c 88 bc 61 05 db 3c d6 b6 b0 3c
       -0.014420281 -0.016622586 0.026735963 0.021571558
000340 8f 42 c1 3c 83 12 e7 3c e0 a6 ce bb 3e ec c0 3b
       0.023591308 0.02820707 -0.006306514 0.0058875373
000350 ec b0 cb bb 19 83 4a 3b ae 51 6e bb 90 1f 16 bc
       -0.006216159 0.0030900894 -0.0036364603 -0.0091627985
000360 2e ce 5e bc 48 0c 15 3c d9 7b 14 bc 75 05 6d bb
       -0.013598962 0.009097166 -0.009062731 -0.0036166583
000370 cf c4 8a 3c 6e 38 a5 bb 22 c6 ee bc 72 58 25 3c
       0.016939549 -0.0050421273 -0.029147211 0.010091888
000380 4f e2 4f bb 88 50 52 bd bb ed 12 3c 98 b3 a1 bc
       -0.0031720584 -0.05134633 0.008967812 -0.019738957
000390 ee b7 e5 bc 08 6c 94 3c fc 1d 15 ba ec d6 0f bd
       -0.028041806 0.01811792 -0.0005688367 -0.035117075
0003a0 98 5d 66 3c 30 af ee 3b 82 be 00 3c b5 4b a3 3a
       0.0140604 0.0072840676 0.007857921 0.0012458476
0003b0 65 7f a4 3c bf 9a 06 bb 4d fb 80 3b d0 59 84 3b
       0.020080278 -0.0020539013 0.0039362074 0.004039027
0003c0 9f b2 dc 3b 15 e4 63 3c 63 fc ac 3c bc a2 64 3b
       0.0067351605 0.013909359 0.021116441 0.0034887036
0003d0 2e 74 16 3c 92 d9 24 3b ce 7e de 3a 42 87 48 3b
       0.009182973 0.0025154096 0.0016975047 0.0030598198
0003e0 7e 59 48 3c 91 5b 68 bc 69 70 29 bc a1 7d 49 3c
       0.012228368 -0.014181987 -0.010341742 0.012298019
0003f0 a4 76 24 bc 53 97 58 ba 90 f2 a5 bc a4 39 83 bc
       -0.010038052 -0.0008262295 -0.020257264 -0.016018696

backbone.conv3.0.bias f4 [56]
000000 8a d8 0d b2 df c1 1e b3 18 13 59 33 2d 5c 24 b4
       -8.2565155e-09 -3.6963566e-08 5.0541615e-08 -1.5307224e-07
000010 52 04 d9 b2 0d dd 45 33 bd 8e 88 33 93 d7 24 34
       -2.526409e-08 4.606868e-08 6.3589574e-08 1.5352116e-07
000020 4e ac 8c b2 7c 05 56 32 f5 65 93 32 cb 30 08 b3
       -1.63765e-08 1.2457686e-08 1.7159417e-08 -3.1709344e-08
000030 73 52 9a b2 c0 ab d4 33 36 be 76 33 fe 7c ef 32
       -1.7965453e-08 9.9032604e-08 5.7449334e-08 2.7880102e-08
000040 d2 54 a2 b3 e1 a2 d8 b3 34 e8 ab b2 73 34 85 33
       -7.5591416e-08 -1.0087911e-07 -2.0012614e-08 6.2028356e-08
000050 7a d4 eb 32 b7 a0 af b3 28 22 96 b3 68 b6 d7 33
       2.7454224e-08 -8.1783064e-08 -6.991132e-08 1.0044897e-07
000060 40 23 86 b2 37 d6 86 33 1c 7a c8 33 3f 52 fe 33
       -1.5615683e-08 6.278827e-08 9.335437e-08 1.1842757e-07
000070 47 d0 20 34 99 4b 66 b3 64 a8 21 34 0f f0 e8 33
       1.4976932e-07 -5.3619804e-08 1.5055554e-07 1.0847008e-07
000080 9d 7e 59 b4 a6 6c be 33 2d 11 1d b3 e6 20 81 b2
       -2.0255762e-07 8.8673275e-08 -3.6570032e-08 -1.5032537e-08
000090 7e 11 d7 32 1a 03 82 31 e6 26 97 b3 d2 34 e2 33
       2.5037249e-08 3.7838506e-09 -7.038561e-08 1.0533553e-07
0000a0 86 c4 ed b3 ea 50 11 b4 ce 31 e0 b3 c5 0b 55 32
       -1.107192e-07 -1.3533614e-07 -1.0439872e-07 1.2400908e-08
0000b0 aa f4 14 b4 e9 7d 27 b4 4e 68 e9 b2 7a 3e 2f b3
       -1.3872582e-07 -1.5598893e-07 -2.7172202e-08 -4.0802185e-08
0000c0 10 d7 d1 32 d0 a1 e8 b3 16 ef 55 34 d5 c0 a9 33
       2.4428601e-08 -1.08327754e-07 1.992415e-07 7.904752e-08
0000d0 58 e7 e8 32 4a 65 49 b4 43 32 0a 33 82 b2 a1 33
       2.7113558e-08 -1.8756432e-07 3.217634e-08 7.529617e-08

backbone.conv3.1.weight f4 [56]
000000 9f 12 ff 3e 06 e8 fe 3e b6 d9 e5 3e 4b 5a dc 3e
       0.49818894 0.49786395 0.44892663 0.43037638
000010 00 67 02 3f 12 9c f9 3e 48 32 ed 3e bd 0b 0f 3f
       0.50938416 0.48751885 0.46327424 0.55877286
000020 3c c3 05 3f f3 df cd 3e e3 9f 0c 3f 17 23 00 3f
       0.5225103 0.40209922 0.5493147 0.5005354
000030 d0 52 e1 3e 72 4d 06 3f 5e ac 03 3f 6e 6d ee 3e
       0.44008493 0.5246192 0.51434886 0.46567863
000040 30 6c f6 3e 3e e7 d9 3e 86 a8 f0 3e d6 a9 f3 3e
       0.48129416 0.42559236 0.47003573 0.47590512
000050 ba 65 fa 3e d7 37 dd 3e 94 d1 f7 3e 03 4f 05 3f
       0.48905736 0.43206665 0.48402083 0.5207369
000060 b0 b0 ec 3e ef 14 f3 3e 58 d8 fe 3e d4 05 04 3f
       0.46228552 0.4747691 0.49774432 0.51571393
000070 43 1c a9 3e af d3 eb 3e e6 79 24 3f d3 a4 28 3f
       0.33029374 0.4605994 0.642485 0.658765
000080 ba f7 ac 3e d1 38 09 3f 2a 4a ed 3e 2c 30 e9 3e
       0.3378275 0.5360232 0.46345645 0.45544565
000090 7b 61 d8 3e 04 95 d1 3e 55 ef 8e 3e 7c 56 ad 3e
       0.42261872 0.40934002 0.2791697 0.33855045
0000a0 d4 8d 11 3f d1 7b 8e 3e 2d 43 d6 3e 0d 9c 2f 3f
       0.5685704 0.2782884 0.41848126 0.6859749
0000b0 e9 b4 c6 3e e2 e3 e7 3e cd f6 ad 3e 88 5c bb 3e
       0.38809898 0.45291048 0.33977357 0.36594033
0000c0 0c 59 a5 3e 24 fa b1 3e 40 3e 27 3f a9 0e 1a 3f
       0.322945 0.34761155 0.6532936 0.6017862
0000d0 2d 08 b6 3e 0e 2c 4d 3e 4c 93 b3 3e 8f 1c 28 3f
       0.35553113 0.20036337 0.35073316 0.65668577

backbone.conv3.1.bias f4 [56]
000000 e3 87 00 3e 3e f1 f1 3d 25 b8 3f bd df 1b 5d 3e
       0.12551837 0.118135914 -0.046806473 0.21592663
000010 ef 02 00 3e 16 0a dc 3d 5c 86 8f 3d 46 a6 91 3c
       0.12501119 0.10744111 0.07008049 0.01777948
000020 c6 2c 0d 3e 5d 95 73 3e 4f 39 d3 3d 03 9c 72 3d
       0.13786611 0.23787446 0.10313665 0.059230816
000030 d4 4c e3 3d ee e3 9e 3d 69 7d 36 3d 0c 50 bd 3d
       0.11098638 0.07758318 0.044553194 0.09243783
000040 a9 b2 d9 3d 22 22 08 3e a1 a2 34 3e 3d b4 ec 3b
       0.1062978 0.1329427 0.17640163 0.0072236345
000050 8e f6 f2 3d b2 5c 2e 3e 4a 5c ba 3d 1c cd a2 3d
       0.11863433 0.17027548 0.09099634 0.07949278
000060 aa 9a 29 3e fb 34 e0 3d 8c eb 24 3e 97 e5 e2 3d
       0.16562906 0.10947605 0.16105479 0.11078947
000070 e2 f6 06 3f 36 4d 0f 3e 5e a8 54 3c 15 21 3a 3e
       0.52720463 0.13994297 0.012979595 0.18176682
000080 ea 39 d9 3d 4b bc 86 3c 53 ff 94 bd ff 25 75 3d
       0.10606749 0.016447207 -0.07275262 0.05985069
000090 c6 62 2e 3e 82 7b 7c 3e 2e 68 a8 bc ce 4c 6a 3e
       0.17029867 0.2465649 -0.02055749 0.22880861
0000a0 cc 75 6e bd dd 2f ec 3e af c5 46 bd 96 46 c6 bd
       -0.05821781 0.46130267 -0.04852837 -0.09681432
0000b0 9b 64 1e 3e 22 52 82 3d 4a 69 90 3d 66 a3 11 bd
       0.15468065 0.06363322 0.07051332 -0.03555622
0000c0 15 a4 f8 3d 6e bb a4 3e 44 e2 f7 bd 6f 0d 9b 3d
       0.12140671 0.32174248 -0.121037036 0.07570922
0000d0 64 6c 07 3e 43 b3 e3 3e e9 88 49 3e a9 a8 ff 3c
       0.13224941 0.44472703 0.19681133 0.031208353

backbone.conv3.1.running_mean f4 [56]
000000 59 a4 5d be 32 a7 41 be 0f 1e d7 3c 68 8f a2 bd
       -0.21644725 -0.18911436 0.02625945 -0.07937509
000010 46 71 a2 bd d5 d6 d4 bd 1b eb 59 bd 7e f1 a5 bd
       -0.079317614 -0.103925385 -0.05320273 -0.081027016
000020 c6 02 90 bd db 58 c0 3d 10 7c 39 be b2 4a a2 bd
       -0.07031779 0.09391948 -0.18113732 -0.07924403
000030 83 b8 08 be 1a 9a 72 be 53 45 90 be 97 c5 e0 bd
       -0.13351636 -0.23691598 -0.2817789 -0.10975187
000040 a2 e1 cc bd c4 40 9b bc 55 b3 42 be 03 cd 91 bd
       -0.100039735 -0.018951781 -0.19013722 -0.07119181
000050 11 e7 6f be af 22 b7 bd cb de 2b be 0d 10 80 be
       -0.23427989 -0.08942162 -0.16784208 -0.25012246
000060 51 2a 95 bd 11 1e 32 bd 7a 24 53 be ed fb 5d be
       -0.07283462 -0.043485705 -0.20619383 -0.21678133
000070 57 79 95 be 06 52 81 be 5a a5 a9 be a7 5e 86 be
       -0.29194137 -0.2525789 -0.33133966 -0.2624409
000080 af c0 25 3d e3 89 71 be d0 cf 0a bd 90 a1 cb bd
       0.04046696 -0.23587756 -0.03388959 -0.09942925
000090 a0 48 9d bd c8 f7 62 be c0 c3 36 3d 8f fb fc bd
       -0.07679868 -0.22164834 0.044620275 -0.123526685
0000a0 73 d4 89 be f9 21 99 be d8 bf a9 bd c0 e3 32 be
       -0.26919898 -0.29908732 -0.082885444 -0.17469692
0000b0 04 d4 1f be 85 30 95 bc 08 f0 8b bb 39 93 fd 3d
       -0.15608221 -0.018211612 -0.0042705573 0.12381596
0000c0 58 6d b2 3d 2d 59 82 3b 84 00 2a be 56 20 ab bd
       0.08712262 0.0039779157 -0.16601759 -0.08355777
0000d0 a8 97 2a be c2 2a e8 3e 10 f0 51 3d cc 58 ba be
       -0.16659415 0.45345122 0.051254332 -0.36395872

backbone.conv3.1.running_var f4 [56]
000000 9d 94 cd 3c d3 61 c9 3c eb 62 92 3c 8e c0 98 3c
       0.025095278 0.024582779 0.017869433 0.018646505
000010 f4 34 02 3d f6 fc c1 3c 37 c8 fc 3c fc b5 a3 3c
       0.03178878 0.023680191 0.030857189 0.019984238
000020 7f 30 c1 3c 01 f7 91 3c 8a 31 18 3d d2 74 9a 3c
       0.023582695 0.017817976 0.03715662 0.018854532
000030 e9 b6 be 3c e8 10 92 3c 9d d3 de 3c 36 fa b2 3c
       0.023280578 0.017830327 0.027200514 0.021847825
000040 99 b8 a4 3c c1 a7 58 3c 9b db e1 3c b4 a2 b4 3c
       0.020107554 0.013223589 0.027570536 0.02205024
000050 54 22 8c 3c 3c b7 9c 3c 68 dd 91 3c c1 21 bf 3c
       0.017106213 0.019130342 0.01780577 0.023331525
000060 f7 50 c4 3c 55 d4 91 3c ba e1 ab 3c ab 44 d5 3c
       0.023964388 0.017801443 0.020981658 0.02603372
000070 bf 68 c0 3c 85 93 c9 3c 4a 31 15 3d 4c 49 23 3d
       0.023487447 0.024606476 0.03642396 0.039864823
000080 0a 82 82 3c 66 5e ed 3c 1f cf 03 3d 61 6a f7 3c
       0.015931148 0.028975677 0.032179948 0.030202093
000090 a1 c5 b6 3c b2 de d3 3c 01 42 7b 3c bd 8f d3 3c
       0.022311034 0.025863025 0.015335561 0.025825376
0000a0 bf 51 06 3d 68 61 fa 3c c1 ca ba 3c 55 f4 fc 3c
       0.032792803 0.030564025 0.022801759 0.030878225
0000b0 6f 86 9f 3c 98 25 ee 3c ac 47 8b 3c 37 2e 53 3c
       0.019473283 0.02907066 0.01700195 0.012889436
0000c0 ec c5 ea 3c 8c 8c a6 3c b2 91 c5 3c b2 e2 0c 3d
       0.02865883 0.02033069 0.024117325 0.03439588
0000d0 c2 e9 9f 3c 75 e2 41 3d 49 77 df 3c 84 98 08 3d
       0.019520644 0.047335107 0.02727856 0.033348575

backbone.conv4.0.weight f4 [56, 28, 3, 3]
000000 9f 69 e9 3b 7f 2d 29 3c c1 a7 8b bb 2c db 80 3b
       0.0071231867 0.0103257885 -0.004261941 0.0039323773
000010 56 3b 63 3a 43 ee 5c bc 66 07 1c ba 35 50 3b bc
       0.00086682045 -0.01348454 -0.000595203 -0.011432697
000020 8f 3f 8e bc 3b a5 2f bc 65 0d d4 bb a7 58 77 bb
       -0.017364291 -0.010720546 -0.0064713233 -0.003774205
000030 31 26 1c bc 89 e7 46 bb 31 e4 d4 37 59 4e 4b bc
       -0.00953059 -0.0030350408 2.537863e-05 -0.012408816
000040 0a 0b 11 3b 43 f6 d9 b8 44 68 9d bc 9f bb 64 bc
       0.0022131824 -0.00010393236 -0.019214757 -0.013960748
000050 ca 8c 1a bb d5 60 84 bb 23 72 ed 3a ef a4 53 3c
       -0.0023582452 -0.0040398636 0.001811568 0.012917741
000060 ab 10 24 3c 08 95 0f bc 26 46 ca 3b 7c 46 09 bc
       0.01001374 -0.008763559 0.006172913 -0.008378621
000070 9f ac 11 bc 0c 81 39 bc 61 5e 7a bc 76 04 41 3a
       -0.008891254 -0.011322271 -0.015281291 0.00073630305
000080 1b 39 2f 3c 2f 40 07 bd 3f 41 b8 bc 53 e0 a6 bc
       0.010694767 -0.033020195 -0.02249205 -0.020370638
000090 f2 50 d5 3b c7 a7 a7 3b d5 e4 62 3c 6c 6e bc 3b
       0.0065098936 0.005116436 0.013848503 0.005750468
0000a0 0e 05 27 bc cb f4 51 3b 8c 77 a4 3c 5a 3c 8d 3c
       -0.010194076 0.0032036777 0.020076536 0.017240692
0000b0 2b a0 4e 3c ff a7 98 bb be 9d 7b bb 50 ad a2 bb
       0.012611429 -0.0046586986 -0.0038393582 -0.004964508
0000c0 da 6d 1c bc af 04 33 bc 45 0b c8 bb 89 d6 87 3b
       -0.009547675 -0.01092641 -0.006104859 0.0041454476
0000d0 32 5f 29 bb b2 fa 4b 3c 58 ba 6b bc de 0f 0a bc
       -0.0025844094 0.012449907 -0.0143876895 -0.008426635
0000e0 32 a1 20 bb ca e3 9b bb 0b 70 b8 bc e2 c9 7d 3c
       -0.0024510142 -0.004757379 -0.022514364 0.015490027
0000f0 89 a9 d0 3c ea dd 65 3c c3 11 af 3c cd 83 e0 3b
       0.025471466 0.014029959 0.021370774 0.0068516494
000100 02 39 48 3c 5c d8 2f 3c 3b 7d 91 3b 35 56 1a bc
       0.012220623 0.010732736 0.0044399775 -0.009419967
000110 62 41 af 3a 74 5f 48 bc 0c 6c ef bb 30 59 a7 bc
       0.0013370926 -0.012229789 -0.0073065814 -0.02042827
000120 fa da 05 3c 55 e0 0d bc 0a a6 e8 bc b8 72 5b 3c
       0.008169884 -0.008659442 -0.028399486 0.01339405
000130 94 8c 1d bc 9d 4a 59 bc 11 58 88 3c a5 88 50 bc
       -0.009616036 -0.013262418 0.016643556 -0.012727891
000140 78 3f d1 bc 46 55 d0 bc ec 6e 03 bc ed 7f 33 3b
       -0.02554296 -0.025431287 -0.008022051 0.0027389482
000150 f1 33 1b bd ec 4b 93 bc ce 40 8c bb b5 bd bf bc
       -0.037891332 -0.017980538 -0.0042801863 -0.023405889
000160 9e 27 1e bc 37 79 55 3b 75 fa aa 3b fd 29 90 bc
       -0.009653 0.003257347 0.005217845 -0.017598147
000170 d4 a6 8b bc 29 01 ae 3b d5 84 30 bc bd 85 c4 3a
       -0.017047323 0.005310197 -0.010773857 0.001499347
000180 71 76 32 3a 1b 8b ce bb 73 53 d1 39 5d d6 3a 3a
       0.000680781 -0.0063032038 0.0003992576 0.00071272795
000190 35 cd c3 3b 42 56 37 bc 4e 35 2b 38 41 24 cf bb
       0.0059753903 -0.011189999 4.081922e-05 -0.0063214605
0001a0 c1 15 91 bb 4a ce 0e bd 11 f8 cd bc c1 63 c2 bc
       -0.004427642 -0.0348647 -0.025142701 -0.023729207
0001b0 75 de 00 bc 1d 97 2f b9 cc 84 1f 3b f8 82 60 3c
       -0.007865538 -0.00016745595 0.0024340628 0.0137031
0001c0 67 8c ab 3b 01 79 12 3b a1 f8 1b 3c 39 78 6b 3c
       0.005235243 0.0022349956 0.009519727 0.014371925
0001d0 f8 db 2b bc e5 06 e2 3b ca 2b 88 3c d1 ce fa 3a
       -0.010489456 0.0068977945 0.016622443 0.0019135122
0001e0 1d c9 64 3c 05 d7 11 3c de 52 83 3b 37 f3 8b bc
       0.013963965 0.008901362 0.0040076813 -0.017083747
0001f0 75 ed 93 ba 3e 74 f3 bc 38 99 0c 3c 6d 50 95 3c
       -0.0011285978 -0.029718515 0.008581452 0.018226827
000200 c0 87 05 3c 3e 80 2a bb 17 32 78 3c 11 c2 67 3c
       0.008150041 -0.002601638 0.015148661 0.01414539
000210 c8 d1 10 bc ab d9 6b b8 b6 b7 c6 bb 47 c0 02 bb
       -0.008839078 -5.6231085e-05 -0.0060643805 -0.0019951032
000220 85 cc 85 3b 84 78 da 3a 58 6e d7 ba 9f 6e b7 ba
       0.0040832185 0.0016667997 -0.0016436083 -0.001399476
000230 da a7 aa bc 24 41 1a 39 88 15 04 bc 64 d5 d0 bc
       -0.020831991 0.00014710851 -0.008061774 -0.025492378
000240 88 31 54 bc 0a 2f be 3b e5 eb 1b 3c 8c 41 1b 3c
       -0.012951262 0.0058039473 0.009516691 0.009476077
000250 d7 3f 2c bb 4d 38 11 3b b0 13 5c 3c 4e d3 da 3b
       -0.0026283169 0.0022158802 0.013432428 0.0066780215
000260 66 18 5a bb 13 73 8a bc e2 1b 58 bb 2e 13 42 bc
       -0.0033278703 -0.016900575 -0.0032975604 -0.011845393
000270 ab d6 49 bb c7 a2 26 3c da 66 7f 3c 4c 9e 1c ba
       -0.0030798118 0.010170645 0.015588487 -0.0005974516
000280 57 57 4c 3c 7d 70 91 3c 0b c3 b5 bb 7c d7 7e ba
       0.012471995 0.017753834 -0.0055469326 -0.0009721441
000290 80 fb 65 3c 7f 55 b0 3a 6c d2 70 3b dd e9 e7 3b
       0.014037013 0.0013453214 0.0036746515 0.007077439
0002a0 9e 91 28 bd 11 c4 1e 3b fd 12 64 3c 78 ae 15 3c
       -0.041154496 0.0024225751 0.013920543 0.009135835
0002b0 ec 0d 6f 3b 08 d5 4a bc e8 e0 d2 3b a2 de 8b 3b
       0.0036476804 -0.012379892 0.0064355023 0.0042684833
0002c0 42 06 12 3b c8 1b f1 3b 31 63 50 bc 28 fe a7 3b
       0.0022281562 0.007358048 -0.012718962 0.0051267333
0002d0 be f2 2a bc 18 02 5c bc e3 46 37 bb 26 81 57 bb
       -0.010433851 -0.013428234 -0.0027965836 -0.0032883375
0002e0 df 31 83 3b 10 3b 6f 3b 34 d5 81 bb e9 5c 6e bc
       0.004003748 0.003650371 -0.0039621834 -0.014548519
0002f0 9b 9a 8e bc 17 7c c1 b9 73 5e 53 bc 7c d5 8d bc
       -0.017407706 -0.00036904283 -0.012900936 -0.017313711
000300 e1 1f 1f 3c 04 67 29 bc a5 19 8e bc 1e a3 16 3d
       0.00971219 -0.010339502 -0.017346213 0.036776654
000310 6a 69 ca 3b 03 5d 32 bb 0c 23 13 bc dd 76 1e 3c
       0.006177117 -0.0027216084 -0.008980524 0.009671894
000320 cf 60 5b 3c b8 40 fe bb f5 f9 1f bc 9f b3 25 3b
       0.01338978 -0.00775918 -0.009764184 0.0025284064
000330 81 7b f5 3b ae 2e 35 3c 0f b0 26 3b 5d 62 5e 3c
       0.0074915295 0.011058493 0.002543453 0.013573256
000340 06 d8 e9 3c 39 f8 f7 3c c4 2a 19 b8 2a 95 8c ba
       0.02854539 0.030269729 -3.651787e-05 -0.0010725607
000350 a1 12 e5 bb 2c 4f 0a bd c9 78 93 bc 75 f5 b8 bc
       -0.006990746 -0.03376691 -0.01800193 -0.02257798
000360 b7 0e 3d bc 46 2b 08 bc fc c0 e9 bb ac 7c 8f 3b
       -0.011539153 -0.008311098 -0.0071336012 0.0043788757
000370 e4 2e 3f bc 45 d1 4b bc ca d3 94 bc 8c 7e 80 bc
       -0.011668894 -0.01244003 -0.018167395 -0.015685342
000380 ef fb 74 bc f7 36 25 bc 0b c5 55 bb f1 d9 0a bc
       -0.014952644 -0.010083905 -0.0032618667 -0.008474813
000390 e3 d3 20 bc a5 02 8e bb f4 e5 17 bc 9f 8f ad 3c
       -0.009816143 -0.0043338113 -0.009271134 0.021186648
0003a0 d4 21 23 3c 9e d7 8f 3c de fb 5b bb ae 33 fd 3b
       0.009956796 0.017558869 -0.0033566873 0.007727108
0003b0 84 e6 1e bb 2c 01 d7 bb 1e bb b2 bb 17 b4 e4 3a
       -0.0024246285 -0.006561419 -0.005454435 0.001744869
0003c0 56 68 53 bc 1c 87 f0 3b 0b 79 36 bc e5 80 5d bc
       -0.012903294 0.007340325 -0.011137257 -0.0135195
0003d0 41 1e 94 bb ed 2b 54 bb b5 28 ab bb 6a 35 1c 3c
       -0.004520208 -0.0032374815 -0.0052233585 0.009534219
0003e0 b6 96 8f 3b 35 0e 91 3b 1c 78 e6 3b d8 07 09 3d
       0.00438198 0.0044267424 0.007033361 0.033454746
0003f0 9d d4 40 3c 8b 3f f3 bb 13 4f b5 3a 5a b1 53 3a
       0.011769441 -0.0074233464 0.001383277 0.00080754387

backbone.conv4.0.bias f4 [56]
000000 df e5 48 34 77 e7 79 b3 e9 e1 cd b3 51 3a a3 34
       1.8710078e-07 -5.8185346e-08 -9.587149e-08 3.0403547e-07
000010 aa 5b 57 33 49 cf 4c b4 a2 77 db 33 ac 8d 7d b3
       5.0141956e-08 -1.907439e-07 1.0219743e-07 -5.9035003e-08
000020 4c 84 9f b4 26 7c ca 33 c8 32 07 b1 69 a3 37 32
       -2.9712317e-07 9.4289405e-08 -1.9673951e-09 1.0689157e-08
000030 88 14 ac 32 1d 19 c5 b3 8c 4a 89 33 83 80 f2 34
       2.0032772e-08 -9.1780954e-08 6.3931196e-08 4.5169517e-07
000040 d1 ea 7e 34 51 b9 76 b3 3c b7 0f 34 59 52 4f 31
       2.3741019e-07 -5.7444883e-08 1.3384573e-07 3.0169274e-09
000050 df 55 9e 32 79 0d 17 b4 76 dd 87 b4 97 26 bc b3
       1.843267e-08 -1.4067872e-07 -2.5306844e-07 -8.761452e-08
000060 0c 1f e2 34 40 0b 01 b4 da 87 72 b4 f2 dc 57 33
       4.211837e-07 -1.2018154e-07 -2.2587429e-07 5.0259537e-08
000070 ed c0 fd b3 c4 7e a7 33 0d e3 8b b4 54 98 90 34
       -1.18163236e-07 7.799602e-08 -2.605597e-07 2.6932923e-07
000080 6a 51 05 35 4b 03 de 34 8b dd fe b4 95 42 99 35
       4.9664834e-07 4.1353118e-07 -4.747238e-07 1.1418766e-06
000090 59 c9 74 34 ea 5b 9f b4 30 56 27 35 aa 74 36 b5
       2.279752e-07 -2.9682934e-07 6.233777e-07 -6.797005e-07
0000a0 8a d0 32 b4 c5 f7 42 34 1b fa 30 b4 0f 2b 49 33
       -1.6653408e-07 1.8157796e-07 -1.6482265e-07 4.683812e-08
0000b0 4e a0 a6 33 e8 81 ce 34 eb 10 d5 b4 0b b6 ff 34
       7.7591366e-08 3.846501e-07 -3.968665e-07 4.7629905e-07
0000c0 0e dd 9a 35 18 24 02 b5 7b e9 30 b5 8b 55 29 b5
       1.153823e-06 -4.84813e-07 -6.590487e-07 -6.308189e-07
0000d0 fd 98 02 b4 42 6c bc 34 3c fc b4 35 a8 28 da 33
       -1.216285e-07 3.5096497e-07 1.3484455e-06 1.01588114e-07

backbone.conv4.1.weight f4 [56]
000000 24 19 50 3f d7 ca 65 3f 2f 20 55 3f 7b b1 8b 3f
       0.8128836 0.89762634 0.83252233 1.0913538
000010 86 a6 86 3f 79 c5 54 3f a2 bf 5a 3f 78 5d 37 3f
       1.0519569 0.8311382 0.8544866 0.71626997
000020 86 ff 2e 3f 58 e6 49 3f a9 35 5c 3f fa da 4a 3f
       0.6835865 0.788671 0.8601938 0.7924038
000030 be d0 4f 3f e9 2d 39 3f bf cc 4c 3f 2d 3b 7d 3f
       0.8117789 0.7233568 0.7999992 0.9891842
000040 62 ef 64 3f ab 78 3a 3f 01 c8 51 3f db 94 6f 3f
       0.8942777 0.72840375 0.81945807 0.9358651
000050 de 9c 7b 3f 1c 4b 23 3f e3 be 42 3f e8 b0 56 3f
       0.98286235 0.6378648 0.7607252 0.8386369
000060 29 ba 8e 3f a5 b2 47 3f 90 3e 41 3f 59 b2 46 3f
       1.1150562 0.78006965 0.7548609 0.77615887
000070 9e bf fb 3f 51 81 aa 3f 65 e5 85 3f 50 be 3d 3f
       1.9667852 1.3320714 1.0460631 0.7411852
000080 b8 74 c9 3f 51 70 99 3f e9 db a5 3f fd fa 84 3f
       1.5738745 1.1987401 1.2957736 1.0389096
000090 5e 6f b1 3f 67 8c 8b 3f ee 2a 88 3f e1 8c 90 3f
       1.3862112 1.0902222 1.0638101 1.1292993
0000a0 e0 ed 1e 3f 9b ae b9 3f 30 1e 82 3f 17 14 e2 3f
       0.6208172 1.450641 1.0165462 1.7662381
0000b0 69 c5 07 40 8f 06 af 3f f8 f6 b4 3f 7d 3d 43 3f
       2.121424 1.3673877 1.4137869 0.762657
0000c0 b6 62 4d 3f f0 3e 90 3f 7b 4a a2 3f 74 e8 a0 3f
       0.80228746 1.1269207 1.267898 1.2570939
0000d0 40 d0 7b 3f ab ca 79 3f 6d 84 2e 3f 5c 91 71 3f
       0.9836464 0.9757487 0.68170816 0.94362426

backbone.conv4.1.bias f4 [56]
000000 e0 26 97 3e d5 cf 9c 3e 76 a1 f6 3e cb 62 96 3e
       0.29521847 0.30627313 0.4817006 0.29372248
000010 b1 88 a3 3e cd c4 c3 3e fe e6 c6 3e 36 2b 4b 3e
       0.31940225 0.38236085 0.38848108 0.19840702
000020 cb c0 60 3e d7 5a 05 3f 9f 22 ac 3e 42 5e 75 3e
       0.21948545 0.52091736 0.33620164 0.23961738
000030 e1 73 1a 3f 11 91 96 3e d1 7a 7d 3e 80 74 95 3e
       0.6033307 0.29407552 0.24753882 0.29190445
000040 9a 09 2e 3e c2 62 e1 3e d0 c2 a8 3e f9 32 9c 3e
       0.1699585 0.4402066 0.3296113 0.3050764
000050 54 c4 f1 3e d7 77 23 3e ba 67 f8 3e 77 a9 98 3e
       0.472201 0.15963684 0.48516637 0.2981679
000060 c7 15 e3 3e c6 bd bd 3e 40 81 7c 3e cc d8 9c 3e
       0.44352552 0.37058848 0.2465868 0.30634153
000070 8e a5 3a 3f 85 b6 1a 3f 88 2f 82 3f dd 7b b7 3d
       0.72908866 0.6043475 1.0170755 0.08959172
000080 5e bd f7 3e 86 aa 27 3f 34 2c c2 3e be 40 83 3f
       0.48386663 0.65494573 0.3792435 1.0254133
000090 b2 50 2f 3f 6f 03 45 3f ce 1e 98 3e d3 21 68 3f
       0.68482506 0.76958364 0.29711002 0.9067661
0000a0 63 c4 cf 3e da 8d 0a 3f bc 8d fd 3e 0b c1 0a 3f
       0.4057952 0.541227 0.49522197 0.5420081
0000b0 70 69 68 3f 03 cb 33 3f c6 29 44 3f d5 5c bf 3e
       0.90785885 0.70231646 0.7662624 0.37375513
0000c0 d8 d6 36 3f 5d ed 9a 3f 60 1b 27 3f 01 f4 1b 3f
       0.71421576 1.2103688 0.65276146 0.60919195
0000d0 e6 f0 9d 3e 39 dd 81 3e df 3a ef 3e f0 a2 1f 3e
       0.30847853 0.25364092 0.46724603 0.155895

backbone.conv4.1.running_mean f4 [56]
000000 7f 73 17 be 3d d4 00 be e9 38 c1 bd 41 e6 64 be
       -0.14790152 -0.12580962 -0.09434683 -0.2235346
000010 19 7b 75 be 63 c3 09 be fc 4c 17 be 3f 86 a6 bd
       -0.2397274 -0.1345344 -0.14775461 -0.08131074
000020 a7 5d aa 3d 73 ea bc bd 5a 34 cd bd 8a 7c b1 bd
       0.08318644 -0.09224405 -0.10019751 -0.08666332
000030 c8 e3 ba bd 96 ae 8e bd b4 86 80 bd e7 b6 6b be
       -0.09125477 -0.069668934 -0.062756926 -0.2301899
000040 ba 90 4a be d5 c3 ac bd 7a 82 11 be 64 8a 03 be
       -0.19781771 -0.084357895 -0.14209929 -0.1284576
000050 1b 5b 17 be db ca 1f bd ee 42 c0 bd 17 97 fe bc
       -0.14780848 -0.039011817 -0.09387766 -0.031077905
000060 54 79 6f be a7 4c f9 bd 8e 7a b6 bd 6e e8 2f be
       -0.23386127 -0.121728234 -0.08910094 -0.17178509
000070 e6 a7 01 be 0a c8 f0 3d 40 a7 9c 3a fb 63 1c 3e
       -0.12661704 0.117569044 0.00119517 0.15272515
000080 b6 9d 21 be b2 62 8b be 56 f3 78 3e 15 9b 82 3e
       -0.15782818 -0.27223736 0.24311575 0.25508943
000090 13 9f 49 be 1a 88 83 be 57 98 90 be bf 4b 3d be
       -0.19689588 -0.25689775 -0.28241226 -0.18485926
0000a0 5e 66 5b 3d 0d 27 5c bd ba 21 00 be da 7c 84 3c
       0.05356442 -0.05374818 -0.12512866 0.016172815
0000b0 d8 07 8a bd 80 bb ab 3e c6 e3 8c 3d 60 0b 34 bc
       -0.06739777 0.3354149 0.06879382 -0.01098904
0000c0 18 cb b2 3e ac 83 05 be 04 9d 12 be a7 44 17 be
       0.34920573 -0.1303851 -0.14317709 -0.14772283
0000d0 e1 d2 2b be f5 fe d1 bc aa dc c2 3e 02 48 aa bd
       -0.16779663 -0.025634268 0.38058978 -0.08314516
